data/preload/net_encode.pt (torch, 46341 bytes, 21 tensors)

weight f4 [3, 1, 3, 3]
000000 c1 2d 62 3d 71 bb 35 3e e1 5a f3 3d c6 da 3f bd
       0.055219416 0.17747284 0.11882568 -0.046839498
000010 cf 9d aa 3d 0c 5a da 3d e0 be fb 3d 93 3c 9f 3d
       0.08330881 0.10661706 0.12292266 0.077752255
000020 3e fc 8a 3b 1d 6b 32 be b0 dc bb bd a7 7a b3 bc
       0.0042414954 -0.17423673 -0.09172952 -0.021909071
000030 d0 55 a5 bd 0d f2 72 bd ef 5a 9e 3d 06 30 05 be
       -0.08073008 -0.05931287 0.07732188 -0.130066
000040 21 85 ab be 71 20 60 be dc d2 d4 3d f7 df 81 be
       -0.33500007 -0.21887375 0.10391781 -0.25366184
000050 f6 c7 67 be b8 6c ef 3c 89 95 de be ec 19 a1 be
       -0.22634873 0.029226646 -0.4347346 -0.3146509
000060 a7 25 2a be 4f 35 13 be f4 5c 85 3d
       -0.16615926 -0.14375804 0.0651187

bias f4 [3]
000000 3a 03 5f 3e c9 a5 47 be f5 1a e2 be
       0.21778575 -0.19496836 -0.44161192

weight f4 [16, 3, 1, 1]
000000 24 7b 4a bd c1 56 82 be ca f9 5a 3e 3b 99 84 be
       -0.049433842 -0.25456813 0.2138435 -0.25898156
000010 c7 85 91 3d b2 46 a7 bb 9d 3d 51 3e 15 86 5a 3e
       0.07105594 -0.005104863 0.2043366 0.2134021
000020 95 16 a5 3b 74 ef 08 3e b4 05 dc bd 7e 63 92 3e
       0.0050380924 0.13372594 -0.10743275 0.28591532
000030 95 af 22 be d9 4c 3c 3e eb 23 01 3d 71 0c 37 be
       -0.15887292 0.1838869 0.031528395 -0.1787584
000040 83 6f d6 bd 4e 33 46 be b2 50 6e 3d 66 d9 8d be
       -0.10470488 -0.19355509 0.058182426 -0.27704924
000050 3a 6b 77 be bb 45 2b bd 39 5a 8c 3e ca 20 b6 3d
       -0.24161997 -0.041814547 0.27412584 0.08892973
000060 cc c6 b1 bd e3 16 9a 3e ef 3c 62 3d 61 7a 65 bd
       -0.086804956 0.30095586 0.055233892 -0.056024913
000070 59 1a 8c 3e 18 5e 24 3e 4a 35 75 3e da 3d 13 bb
       0.27363852 0.16051519 0.2394611 -0.0022467286
000080 d7 cf 18 3e ef 86 59 3c 46 5e 5f 3d 75 73 9a be
       0.14923035 0.0132768 0.054533266 -0.30166212
000090 e1 aa 42 be 9e c2 6d be ce c4 3d 3e 30 2f 08 3f
       -0.19010498 -0.23218772 0.18532106 0.53197
0000a0 7b 61 88 3d 55 84 a8 bd 8f 63 26 bd a9 7b 32 bf
       0.06659218 -0.08228365 -0.04062229 -0.6971994
0000b0 b0 48 ba 3c 2d de 33 3e 01 6f 8c 3e 46 af eb 3d
       0.022739738 0.17565222 0.2742844 0.1150804

weight f4 [16]
000000 fe 0e fa 3d 9d 63 0f 3e 20 37 84 3e cb 67 51 3e
       0.12209891 0.14002843 0.25823307 0.2044975
000010 05 b2 47 3f 66 7c 26 3e a1 a3 a3 3e bb 8c e3 3d
       0.7800601 0.16258392 0.31960776 0.111108266
000020 58 41 e7 3e d8 32 a4 3e d5 77 38 3f e6 c2 5b 3e
       0.4516704 0.3207004 0.7205785 0.21461067
000030 2b e5 61 3e 9c ae 85 3f db 9c 8a 3e 83 c5 6a 3e
       0.22060077 1.0443912 0.27072796 0.22926907

bias f4 [16]
000000 47 d1 03 3d 5d c1 2d 3c 5a 16 19 bd c5 d3 88 3e
       0.032182004 0.010605183 -0.03737483 0.26724067
000010 44 d0 bd 3e 5b 48 e5 3a 4f 22 7e be ae 93 c6 3d
       0.37072957 0.0017492877 -0.24817775 0.096961364
000020 12 44 b8 3e a3 c2 71 3e e2 7a 8b 3d 66 ca 46 be
       0.35989434 0.23609404 0.068105474 -0.19413146
000030 01 39 24 3e d6 2c ce 3d 35 84 4c be 39 c7 ba bc
       0.1603737 0.100671455 -0.19972308 -0.022800075

running_mean f4 [16]
000000 d4 fd cb bc 62 bb 71 bd 81 bd fd 3d cd 49 bf 3d
       -0.024901308 -0.059016593 0.123896606 0.09340248
000010 33 8d 66 3c c7 d7 0f be ab c5 07 be 25 2e bc 3d
       0.01407175 -0.14047156 -0.13258998 0.09188489
000020 43 e7 9b 3d 21 43 de 3d 51 cf eb 3d d4 2f 8d bd
       0.07612469 0.108526476 0.11514152 -0.06893888
000030 7d aa 8d bd 42 78 1e 3e b7 ba 51 be ac f0 28 3e
       -0.06917284 0.15475562 -0.20481382 0.16498059

running_var f4 [16]
000000 d8 b2 3f 39 97 ca 1e 3c 99 ef 77 3a 54 eb ba 3a
       0.00018281804 0.009691856 0.0009458005 0.0014260807
000010 00 74 7f 3c 37 5b 91 3b 52 be 39 3d f9 3b b2 3c
       0.015591621 0.0044359225 0.04534752 0.021757113
000020 be 7a c9 3c 8f bd 03 3d e9 16 fa 39 66 f1 2a 3c
       0.02459466 0.0321632 0.00047700785 0.01043353
000030 bf 5a 04 3b 45 df d6 3c 97 01 67 3d 05 1b 20 3c
       0.002019569 0.02622951 0.056398 0.009772067

weight f4 [16, 1, 3, 3]
000000 56 c0 a0 3f 26 e4 59 3f 3c 9b 03 3f 0f 1a da 3e
       1.2558696 0.8511375 0.51408744 0.42598006
000010 f6 62 ee 3d fc c3 20 3f 58 ab 5d bd 1a ad 9b 3e
       0.11639969 0.6279905 -0.054118484 0.30405504
000020 93 3a c9 3e 18 1a b3 bf ec 25 73 bf 20 ea e6 3e
       0.393025 -1.3992338 -0.9497974 0.45100498
000030 4a 25 05 be f5 94 6e bf 51 2f 05 40 37 a8 1a 3f
       -0.13002506 -0.9319604 2.081013 0.60412925
000040 18 b4 31 40 48 c8 57 40 2e a2 4d bf a3 b1 0c c0
       2.776617 3.3715992 -0.8032559 -2.198342
000050 4e 9f d7 bf 30 cf 2d 3e 7e 33 aa 3e d2 b1 28 be
       -1.6845491 0.16973567 0.3324241 -0.16474083
000060 63 a9 14 40 0f 4f f5 3f bb 60 e5 bd d7 96 19 3e
       2.3228385 1.9164752 -0.112000905 0.14998947
000070 7f 90 5d 3f 2e ac cb 3e d5 21 d5 bd 99 65 53 3e
       0.8654861 0.397798 -0.104068436 0.20644225
000080 9e 10 c9 be 6a 28 e3 3e 60 23 22 3f 9a 81 17 3f
       -0.3927049 0.4436677 0.6333523 0.5918213
000090 cb ff 1a 3d 5b d0 80 3e 00 64 14 3f 40 01 cd bc
       0.0378416 0.25158963 0.5796509 -0.02502501
0000a0 ee 63 06 bc a4 b7 eb 3d cc 55 14 3e 2b b9 1b be
       -0.008202536 0.11509636 0.14485854 -0.15207355
0000b0 10 8b 66 bd 74 92 9e 3f fc e0 27 3f 5c 81 00 3d
       -0.056284964 1.2388444 0.65577674 0.031373367
0000c0 85 71 7d 3e 75 f7 3e 3f 04 b8 e7 bd e0 36 78 3f
       0.24750336 0.7459634 -0.11314395 0.9695873
0000d0 36 7b 81 3f 5e 5e f6 3e 18 dc 24 3f b7 e8 ee 3f
       1.0115726 0.4811887 0.64398336 1.8664769
0000e0 30 87 73 40 34 d8 21 40 b2 2a 24 40 12 ca 2b 40
       3.8051262 2.528821 2.565106 2.6842084
0000f0 fc cb 19 3e 52 52 26 3f d6 f6 44 bf a3 5b 65 3f
       0.1501922 0.6496936 -0.7693914 0.8959295
000100 4a ab d9 3f 74 fc 92 3f 31 f7 0d bf 69 60 7f bf
       1.7005398 1.1483293 -0.5545531 -0.99756485
000110 3b e8 ba 3e e0 1d c3 bf fb bf 19 c0 3a c8 c4 bf
       0.36505303 -1.5243492 -2.4023426 -1.5373604
000120 78 5e 80 3f 43 e2 63 3f e7 9a 64 3d 11 c9 80 3f
       1.002883 0.89017123 0.05581179 1.0061361
000130 ec 56 c4 be 65 0b 0e bf e0 d5 7a 3c e4 ea 91 bf
       -0.38347566 -0.55486137 0.015309781 -1.1399808
000140 5b 19 15 bf 8a f7 82 3f 45 b3 b9 3e 54 ad ad be
       -0.58241814 1.0231793 0.36269584 -0.339213
000150 3a 8f ab be bd 54 11 bf 77 f7 9e bf 05 d0 64 3f
       -0.3350771 -0.56769925 -1.241927 0.8937991
000160 c7 33 9f 3f 39 11 7e 3f 88 78 10 bf d7 9f ad be
       1.2437676 0.9924503 -0.56433916 -0.3391101
000170 94 c4 fc 3d 21 3b 5c be 76 c1 0e 3e f6 9b f0 bd
       0.12342182 -0.21506931 0.13940987 -0.11748497
000180 0a 47 43 3e c6 1a 0a be f4 16 b4 be e7 fb 32 40
       0.19070068 -0.13486776 -0.35173762 2.796625
000190 51 cd 9b 40 d7 3b a2 3f 0c d8 86 3f 6a 8e 8e 40
       4.868813 1.2674512 1.0534682 4.4548845
0001a0 e5 f6 35 40 cd 92 44 3c 78 b0 ff bf 99 e9 5f 40
       2.8431942 0.011997891 -1.9975729 3.4986327
0001b0 fd 52 9a 3e ba 24 56 3e d8 64 f7 3e 2b aa 3d 3e
       0.3014144 0.20912448 0.48319125 0.18521945
0001c0 ae ff 26 3e ec 06 07 bd a8 32 47 3e 6e 4f 9e 3e
       0.16308472 -0.032965586 0.19452918 0.30919975
0001d0 3b 41 31 3e bd 43 d8 3e f2 89 b3 3e f8 69 3c 3c
       0.1731004 0.4223918 0.3506618 0.011499874
0001e0 4e 9d 33 3e a0 f9 dc bb 48 3d 82 be 28 be 3c be
       0.17540476 -0.006743625 -0.2543738 -0.18431914
0001f0 2c 28 c6 be 04 74 ee be cb e2 55 bf 5a 08 a9 c0
       -0.38702524 -0.46572888 -0.83549184 -5.2822695
000200 46 73 fe c0 4c 11 70 3f 5b d1 0d bf 02 d2 bc bf
       -7.9515715 0.9377639 -0.55397576 -1.4751589
000210 27 c7 a3 3f 44 18 01 40 5e 36 6c 3f ac b3 fc 3e
       1.2795151 2.017106 0.9227046 0.4935583
000220 b6 cb 74 3f 6b 98 bb 3f 04 8a 36 bf a1 f2 90 be
       0.9562334 1.4655889 -0.71304345 -0.2831011
000230 54 41 01 bd 48 9d 2c 3f 7e 84 2b 3f 7d 17 a0 3f
       -0.031556442 0.6742749 0.6699904 1.2507168

bias f4 [16]
000000 48 05 e4 3c 03 60 0e bf 32 f2 f6 3d b9 a6 78 bf
       0.02783455 -0.5561525 0.12057914 -0.971294
000010 10 09 39 bf e2 37 0d be 20 3d 9a be 02 9e 09 3f
       -0.72279453 -0.13790849 -0.3012476 0.53756726
000020 98 28 18 3d 55 87 0b bf 96 d8 34 3f cc ed bb 3e
       0.03714809 -0.54503375 0.70642984 0.36704862
000030 c1 fe 50 be d2 a4 01 3f 45 be 78 3d 08 b1 10 be
       -0.20409681 0.5064212 0.06072833 -0.14130032

weight f4 [32, 16, 1, 1]
000000 c4 ce 0b be bd 8f 0d 3d e2 4d 4b bd 2e 3a 95 bd
       -0.13653094 0.034560908 -0.04963482 -0.072864875
000010 f5 ff 15 3d 5a 79 78 3d bd 0a ae bd 58 66 4a 3e
       0.036621053 0.060662605 -0.08498142 0.19765604
000020 11 91 f5 bc a6 bc 27 be cc 0d 72 3d fb b0 cf bd
       -0.0299764 -0.16380557 0.05909519 -0.10141178
000030 06 a3 ce bd ee 9a 43 3e 9a b5 f2 3d f3 1d d0 bd
       -0.10089688 0.1910207 0.11851044 -0.10161962
000040 71 a5 0f 3d d9 be c0 bc 62 3f 76 3e 91 e5 9d 3d
       0.035069887 -0.023528503 0.24047616 0.07709802
000050 34 d1 db 3c eb 46 8d 3d c1 05 e3 bd 54 ba c6 3d
       0.026833154 0.06898292 -0.11085082 0.09703508
000060 4c be 25 3c f3 0c 3d be 6f 3c 12 3e 4b ce 5d 3d
       0.010116171 -0.18461971 0.14280866 0.054151814
000070 00 66 25 be 19 5f 00 be c2 f5 5d bc d7 79 09 3e
       -0.16152191 -0.12536277 -0.013547363 0.13425384
000080 de 40 c4 bd da 57 cf 3b d3 d6 c0 bd 35 5b d6 3d
       -0.09582685 0.0063276114 -0.094159745 0.10466615
000090 04 db c0 3c b1 f2 61 3d 15 cd 74 bd 58 7c 63 3d
       0.023541935 0.05516309 -0.059765894 0.055538505
0000a0 d7 79 ba bd a4 44 1c be 0f 8f 89 bd 23 4f d2 bd
       -0.0910527 -0.1526056 -0.067167394 -0.102690004
0000b0 e9 36 e9 3b 38 bf 4d 3b 6b 82 b2 bd ec bb 46 3e
       0.0071171415 0.0031394493 -0.087162815 0.19407624
0000c0 ba 80 c5 3c b7 e3 34 be 57 b4 9c bd 3a dd ff 3c
       0.024109233 -0.17664991 -0.076515846 0.031233419
0000d0 14 14 c5 3d 42 d0 d6 3a 67 35 fe 3c 89 7d 07 3e
       0.0962297 0.001638897 0.031031324 0.13231482
0000e0 09 56 b6 bd 0e e7 ba bc 50 e2 ca bd fe 2b e5 bd
       -0.08903129 -0.022815254 -0.09906447 -0.111900315
0000f0 7c 35 5a be 15 3a 93 bd b4 47 d5 be f9 45 e6 bc
       -0.21309465 -0.07188813 -0.41656268 -0.028109537
000100 a9 da bb 3d 8d 50 43 bd 9f 64 80 3d 5d 56 81 bd
       0.091725655 -0.04768424 0.06269192 -0.063153006
000110 9c f8 78 3e e4 ff 13 3d 9e 80 c7 3d 44 2b 55 3d
       0.24313587 0.03613271 0.09741329 0.052043214
000120 81 25 80 3d 80 86 b3 3d 53 a6 70 3d 09 e1 3e 3c
       0.06257153 0.08765888 0.05875237 0.011650332
000130 22 1d 14 3c 2f 72 36 3d 2e 5d c7 bd d5 04 35 be
       0.009040149 0.044542488 -0.097345695 -0.17677625
000140 ac 9a 46 3d 86 fd 60 3d 6a 5c 87 bd f8 fd 0d be
       0.04848735 0.05492928 -0.066094235 -0.13866413
000150 13 3d 6c 3d f8 70 e3 bd 68 f4 aa bd b2 da ff 3c
       0.057675432 -0.111055315 -0.08347398 0.031232212
000160 a1 5b 7b bd 86 33 49 bc 95 1d c5 3c 19 98 1e 3e
       -0.06136668 -0.012280351 0.024061957 0.15487708
000170 c0 31 ad bd 98 1e 69 bd 70 46 5a be 24 d2 2e be
       -0.08456755 -0.056913942 -0.21315932 -0.1707235
000180 56 9b 2d 3d de a7 09 3e 81 eb 7c 3d f5 81 b3 bc
       0.042384468 0.13442943 0.06174803 -0.021912554
000190 ec 9a a7 3e cc 2f 9a bd 23 af 03 bc e7 95 cd 3d
       0.32735384 -0.07528648 -0.008037361 0.10038357
0001a0 7d b4 cd 39 d5 17 f3 3d 37 54 47 3e 8f d2 79 bd
       0.0003923512 0.1186978 0.19465719 -0.06099182
0001b0 4a a8 77 3d f4 10 21 bd d0 14 25 be 81 a5 9d bc
       0.060463227 -0.03932281 -0.1612122 -0.019243957
0001c0 f8 f0 df bb bf f5 4f bc c3 f7 96 bc 48 01 07 be
       -0.0068341456 -0.012692868 -0.018428689 -0.13184083
0001d0 56 56 44 3d a0 c8 15 bc 34 08 d4 bd e9 ea 47 be
       0.0479339 -0.009142071 -0.10353127 -0.19523205
0001e0 3d c5 fd bd cb 62 97 3d 08 45 30 3e 29 fc b5 bd
       -0.12391136 0.0739189 0.17213833 -0.08885986
0001f0 52 4e 6e bd fe 21 5b be 38 33 59 be 61 0e b9 3d
       -0.05818016 -0.21399686 -0.21210945 0.09035946
000200 9b fa a5 bc 53 0d 0e 3e d9 3e 7c 3b 02 45 9e bc
       -0.0202611 0.1387227 0.0038489609 -0.019320015
000210 46 9a 49 3e e7 41 6a 3d 15 c6 8e bd 85 8e 00 be
       0.19687757 0.057191756 -0.06971375 -0.12554367
000220 f5 fa 0a bd 8c 76 4e 3e 86 cc 2d bd 2b 56 c5 3d
       -0.033930738 0.2016241 -0.042431377 0.09635576
000230 09 2a e9 3c 8a 9c 06 3d c3 3c 6f bd 27 d6 f5 bd
       0.028462427 0.03286413 -0.058407556 -0.12003737
000240 14 1c 83 bc 25 71 8f 3d ed 7f 46 bd 44 8c 90 3c
       -0.0160046 0.070040025 -0.048461843 0.017645009
000250 b1 87 28 bb c0 a8 33 3d 88 1c 7d 3e 5c 07 4a 3d
       -0.0025715644 0.043862104 0.24717915 0.049323425
000260 76 53 af 3d d2 54 e5 3d 8c f7 b7 3d 58 bd f3 3d
       0.08560841 0.11197819 0.08982763 0.11901349
000270 50 80 fa 3c ea 9b 42 3e b3 29 90 3d b4 11 46 bd
       0.030578762 0.19004789 0.070392035 -0.048356727
000280 2b f7 fb 3c d8 22 0c 3e 04 c3 4b 3d c5 14 e9 bd
       0.030757507 0.13685167 0.04974653 -0.113809146
000290 a5 87 12 3e e0 88 c3 bd a9 42 6b be de 82 0d 3c
       0.14309557 -0.09547591 -0.22974648 0.008637158
0002a0 d5 32 be 3d 54 26 1e 3e af c0 8b 3d 84 7d 9e bd
       0.09287039 0.15444309 0.06823861 -0.07738784
0002b0 1c 81 d3 bc 15 22 03 3e ab 87 4f 3c 4d ca 45 3e
       -0.0258184 0.1280597 0.012666623 0.19315453
0002c0 43 e4 24 be 4d af 42 3d ac fb 9b 3d 7a 86 0c be
       -0.161027 0.04753046 0.07616362 -0.13723174
0002d0 30 4f 7b bd 8f 24 dd 3d 8f 4b f8 3d aa ef 46 bd
       -0.061354816 0.107979886 0.12123787 -0.048568405
0002e0 58 84 43 3e c7 1a d9 bd 22 a1 90 3b 95 fb 00 3e
       0.19093454 -0.106008105 0.00441374 0.12595971
0002f0 a2 b9 5e bc f9 0a 45 bc 18 fd 2e 3e d0 80 98 3d
       -0.013594063 -0.012026542 0.17088735 0.07446444
000300 60 4f a0 3d c5 f2 15 3d 1e 89 0e bd ca dd d0 3d
       0.078276396 0.036608476 -0.034798734 0.10198553
000310 64 2a 0b be 2d 00 30 be 00 f4 a4 3e 17 a5 38 3c
       -0.1359039 -0.17187567 0.32217407 0.011269829
000320 28 42 52 3b 18 e6 52 3e cc ff 89 3d 00 8b 4a 3e
       0.003208289 0.20595586 0.067382425 0.19779587
000330 dc c8 e3 3b 95 41 58 be ce 93 8c bd 38 b8 54 bc
       0.0069514345 -0.21118768 -0.06864129 -0.012983374
000340 c2 2a 26 be eb d0 f7 bd 5d e2 5a 3b 59 06 0d 3b
       -0.16227248 -0.12100395 0.0033399083 0.0021518676
000350 99 8a 2a bd 07 2e b0 bd c0 e9 1c 3e bd a3 1e 3e
       -0.041636083 -0.08602529 0.15323544 0.15492149
000360 ce d2 86 bc 53 59 56 bd 84 d3 40 bd 03 d2 4e 3e
       -0.016457941 -0.05233128 -0.047076717 0.201973
000370 f3 57 db 3d 67 ce 57 bd 34 2d 32 be b4 ba 07 bc
       0.10710134 -0.052687075 -0.17400056 -0.00828426
000380 ef a7 62 bc 5b 0a 59 3e 52 56 ae bc cc 47 df 3d
       -0.013833984 0.21195357 -0.021281395 0.10902366
000390 80 13 55 be 10 a8 82 bd b5 7b ba 3c cf 14 27 be
       -0.2080822 -0.06379712 0.022764066 -0.16316532
0003a0 9e 33 82 bd 0e 47 2a bd a1 2e eb bd e6 2a ef 3d
       -0.063575014 -0.04157167 -0.11483503 0.11678104
0003b0 1f 3b 86 bc 5f 05 01 3e 59 38 bc bd 0e 65 8c bd
       -0.016385613 0.12599705 -0.09190435 -0.06855212
0003c0 e4 c6 d9 3d aa 43 ce bd 8b 9b 39 3e 23 30 55 bd
       0.106336385 -0.100715 0.18125741 -0.05204786
0003d0 12 00 27 be 51 42 12 3d ca 50 04 be ee 21 4b bd
       -0.1630862 0.035707776 -0.12921444 -0.049592905
0003e0 33 6c 24 3e 4d 32 16 3e b2 a7 e9 3d d3 50 cf bb
       0.160569 0.14667626 0.114089385 -0.0063267737
0003f0 2b ad 6a bc 7e 91 c1 bd 4e ab 89 3d 81 50 30 bd
       -0.014323513 -0.094515786 0.06722127 -0.043045525

weight f4 [32]
000000 29 69 5e 3e 68 78 d3 3e 55 96 90 3e 14 79 10 3f
       0.21719803 0.413028 0.28239694 0.5643475
000010 3e c4 60 3e 03 4e dd 3e a2 44 0a 3f 4c 64 83 3e
       0.2194986 0.4322358 0.54010975 0.25662458
000020 9e 84 12 3f 02 38 7f 3e e1 a9 be 3e 68 49 8a 3e
       0.5723361 0.24923709 0.37238982 0.2700913
000030 c3 57 0f 3f f3 63 0d 3f 03 fd 9f 3e e8 f8 64 3e
       0.5599329 0.55230635 0.3124772 0.22360575
000040 e1 4c 55 3e 87 f8 a6 3e 69 04 91 3e 3c 4c cf 3e
       0.20830108 0.32611486 0.28323677 0.4048785
000050 a1 13 da 3d d4 04 79 3e a0 27 83 3e 85 f5 df 3e
       0.10648275 0.24318248 0.2561617 0.43742004
000060 f0 d5 80 3e 47 55 11 3f fb 8c 81 3e 8e 43 88 3e
       0.2516322 0.5677075 0.25302872 0.2661404
000070 22 44 ea 3e 5f c0 8b 3e 2b f5 db 3e ff b6 db 3e
       0.45755106 0.27295205 0.42960486 0.42913052

bias f4 [32]
000000 59 a9 91 3d 95 b5 17 bd 11 61 18 be 12 0d 13 3e
       0.071123786 -0.037038404 -0.14880778 0.14360455
000010 f9 71 1b 3d 65 eb e6 3c e2 d3 98 bd 07 d4 ef 3d
       0.03795049 0.028188417 -0.074622884 0.11710363
000020 80 c4 1e 3e bc 43 0b bd d4 8e 89 3d c0 0a 0f bc
       0.15504646 -0.034000143 0.067166954 -0.00873059
000030 23 12 1c 3e 3f 36 47 bc 4f 21 4f 3d 46 33 14 3c
       0.15241294 -0.012158929 0.050568875 0.009045428
000040 85 e2 40 bd 52 53 a5 bd 93 ae 1d 3e d3 11 05 3d
       -0.047091026 -0.08072533 0.15398626 0.0324877
000050 3f b6 b8 3d f6 91 50 3c b6 44 a0 3d 03 9f 67 3d
       0.09019136 0.012730112 0.078256056 0.05654813
000060 f0 bf c1 3d 0e f6 88 3d c8 fb 64 bd 5b 40 80 3c
       0.09460437 0.06687556 -0.05590418 0.015655687
000070 37 2b 05 3d ee 68 93 3d 34 d8 14 3e a0 43 44 3c
       0.032511916 0.07197748 0.145356 0.011979014

running_mean f4 [32]
000000 c9 d6 c9 3c 04 58 b7 3d bd 0a 27 bd f0 31 80 be
       0.02463855 0.089523345 -0.040781725 -0.250381
000010 22 12 89 3d 49 ec 1d be e4 2b 14 3e 2d cb 05 be
       0.06692912 -0.15422167 0.14469868 -0.13065787
000020 d2 b6 7f 3c cb 7b 64 3e b0 01 34 3e 24 60 90 3d
       0.015607553 0.22312848 0.17578769 0.07049587
000030 6f bd b1 3c 88 f9 8d bd 79 78 e6 bd b8 65 98 3d
       0.021696774 -0.0693236 -0.11253447 0.07441276
000040 ec c7 2b bd ee e5 42 3d 53 cc 00 3d 03 f9 75 3d
       -0.041938707 0.04758256 0.03144486 0.06005193
000050 2c df 40 bd c2 bc 76 be 59 1e c8 3d 91 18 5d 3e
       -0.047087833 -0.24095443 0.09771413 0.21591403
000060 00 55 d0 bd bb bc 24 3c bc 8b 74 be 1c 77 16 3e
       -0.101724625 0.0100547625 -0.2388143 0.14693874
000070 b4 cb 22 be 10 81 07 3e 26 28 27 3d f9 82 0b be
       -0.15898019 0.13232827 0.040809773 -0.13624181

running_var f4 [32]
000000 79 dd 79 3c f1 1f e5 3b d4 cb b5 3b 38 e8 a3 3d
       0.015250557 0.006992333 0.00554798 0.080032766
000010 d0 8b cc 3b b6 04 24 3d ea f9 dc 3c d2 51 91 3b
       0.006242253 0.040043555 0.026974637 0.0044348026
000020 08 23 04 3c f5 82 5a 3b 4e 64 dd 3d c3 16 d3 3b
       0.008064993 0.0033342217 0.10810147 0.0064419224
000030 48 27 19 3c 54 3b 57 3d 15 9b 78 3b 48 ca 1b 3c
       0.009347744 0.052546814 0.0037934233 0.009508677
000040 fb 0a b9 3b 90 47 c9 3b 9a 9f 04 3c 12 85 9b 3c
       0.005647061 0.006142564 0.008094693 0.018984351
000050 ba 5f 7a 3c 7c dd c3 3c ab 57 68 3d b0 54 a8 3c
       0.015281612 0.023909323 0.05672423 0.020548195
000060 92 c3 35 3c d3 0a a6 3c 33 1f 9f 3b fe d5 96 3b
       0.011093991 0.020268833 0.004856014 0.0046031466
000070 56 92 2e 3c 41 1e b4 3b 94 b5 06 3c cd 66 02 3d
       0.010655006 0.0054967706 0.008222003 0.03183632

weight f4 [32, 1, 3, 3]
000000 1a 5b a1 3e 09 4f df 3e f1 af 15 3e 27 34 29 3f
       0.31514817 0.43614987 0.14617898 0.66095203
000010 99 10 2f 3f 46 2b 42 3e 2e 8a 1d 3f a8 71 2c 3f
       0.683847 0.1896182 0.6153897 0.67360926
000020 23 d9 e4 3e 5f b2 11 3e c5 de bf 3e 10 56 74 3e
       0.44696912 0.142282 0.37474647 0.23860955
000030 c3 2a 73 3e b2 c4 ac 3e 5d 10 3b 3e a6 74 7a 3e
       0.23746781 0.33743817 0.18267961 0.2445856
000040 f1 87 41 3e f2 30 0b 3e 13 b6 a5 3e 1d 6c 8b 3f
       0.18899514 0.1359289 0.32365474 1.0892369
000050 07 0c 80 3f ff 8a a8 3e c9 1b 41 3f eb eb 3c 3e
       1.000367 0.32918546 0.7543302 0.1844937
000060 67 88 22 3f d7 f7 6b 3f 32 34 80 be c3 b0 b7 be
       0.63489383 0.9217505 -0.25039822 -0.35877046
000070 78 95 5d 3e 56 27 61 3f 05 93 a6 bf 2c 68 5a bd
       0.21639049 0.87950647 -1.3013617 -0.053322002
000080 ff 3d 4d 3f b1 09 b8 bf 5a d7 8c be 55 24 b0 3f
       0.80172724 -1.4377958 -0.2750805 1.3761088
000090 d4 32 2a bf f2 88 1d bf 03 5e d6 be 31 55 7b bf
       -0.6648381 -0.61537087 -0.418686 -0.98176867
0000a0 cc 78 99 be 33 6a 9d be 2c 6d 80 be a6 73 8d be
       -0.29974973 -0.30745086 -0.25083292 -0.27627295
0000b0 c3 b0 19 3e 24 73 87 be 5b 37 83 bd 15 df 81 be
       0.15008835 -0.26455033 -0.064070426 -0.2536551
0000c0 e3 ca 5a be 1d 8f 3d be f2 b6 f9 be c3 93 c9 be
       -0.21366458 -0.18511625 -0.4877239 -0.39370546
0000d0 08 4e 45 be 8e 55 35 be 17 c3 ea 3e 7f a8 95 3e
       -0.19268048 -0.17708418 0.45851967 0.29230115
0000e0 0f a8 df bc 97 52 1f 3f c3 d2 6f 3e 84 c5 12 3e
       -0.027301816 0.622354 0.23420243 0.14333159
0000f0 1f c0 d8 3e ab 2c ef 3d aa 76 3a 3d 2f 5b d3 be
       0.42334077 0.116784416 0.045523323 -0.41280505
000100 84 3e 4f be f6 d8 53 be 7e cd 68 be 70 f8 9e be
       -0.20238692 -0.20688233 -0.22734639 -0.31048918
000110 11 5a e6 be e9 36 b6 be a7 87 1c bf bc 46 2a bf
       -0.4499059 -0.35588768 -0.6114449 -0.6651418
000120 c4 ee b5 be 24 e3 94 be 0d 48 1c bf 9a 40 3f bd
       -0.35533726 -0.29079545 -0.6104744 -0.04669247
000130 bc 94 4b 3d 40 4b 82 be 8d b1 51 3e 74 3d df 3e
       0.04970239 -0.25448036 0.20477886 0.43601573
000140 de a3 b2 3e e8 d3 c0 3f dc 1e c3 3f c0 a9 5e 3f
       0.34890646 1.5064669 1.5243793 0.8697777
000150 39 96 c2 3e 8d 37 79 3f ca 74 40 3f 1a db ed be
       0.38005236 0.9735039 0.75178206 -0.46456224
000160 f0 60 fe bd 1a 06 fa be 28 3a ad bf 09 97 c4 bf
       -0.12420833 -0.4883278 -1.3533373 -1.5358592
000170 9b 74 72 3d 4d bf cf bf fc a5 cc bf a9 2f a6 3e
       0.059193235 -1.6230255 -1.5988154 0.32458237
000180 61 dd 19 be ed e4 1a 40 c1 a1 48 40 f2 21 e6 be
       -0.15025856 2.4202225 3.1348727 -0.44947773
000190 ec 6b 00 bf 18 7b 97 be 57 41 cf be 61 de 1c bf
       -0.50164676 -0.295861 -0.40479538 -0.61276823
0001a0 8c 0b d2 be 76 e0 2a 3c ba 19 e1 be 77 6e 2a be
       -0.41024435 0.010429492 -0.4396494 -0.16643701
0001b0 83 75 ec be ac 9e 1a bf d9 1a 95 be 35 44 7d bf
       -0.46183404 -0.60398364 -0.29122046 -0.989322
0001c0 d3 18 12 bf 6b f2 51 3f f8 60 3e 3f 20 92 36 3f
       -0.5706913 0.82010525 0.7436671 0.7131672
0001d0 65 fc c8 3f b9 07 57 3e 85 48 07 bf f3 18 3b bf
       1.5702025 0.2099904 -0.5284503 -0.73084944
0001e0 8e 4b d4 3e 6e 8b c8 be 91 69 51 bf 14 ba e2 3e
       0.41463894 -0.39168876 -0.81801707 0.4428259
0001f0 d1 58 14 bd f1 a4 08 bf cb de 06 bf b5 01 05 bf
       -0.036217514 -0.5337668 -0.52683705 -0.5195573
000200 7c 69 a5 be 4d a8 13 bf f6 e5 8a be a0 3c b7 bc
       -0.3230704 -0.5767868 -0.2712857 -0.022367775
000210 7f fb 7e be 0c 37 09 bb 38 82 42 bb bf b0 89 3e
       -0.24900626 -0.0020937352 -0.0029679667 0.2689266
000220 a4 2c af 3e 4f e8 97 3e 86 99 a6 3e 1d 31 02 3f
       0.34213746 0.29669425 0.32539004 0.5085619
000230 fd 61 fa 3e 47 fc 33 3e 79 31 c0 3e 96 88 a9 3e
       0.48902884 0.17576705 0.37537745 0.3311202
000240 66 9c 16 3e bb f4 dd 3e 94 58 1f 3f c8 f4 cd bf
       0.14708099 0.43350777 0.62244534 -1.6090326
000250 9e 23 1e 3f 53 89 c4 3e 23 fc c4 bf 53 c8 68 3f
       0.617731 0.3838602 -1.5389446 0.9093067
000260 63 13 5d 3f a0 a6 ad 3e 2d b7 17 3f 0d 41 a1 3d
       0.86357707 0.33916187 0.5926388 0.078737356
000270 1e cb b5 3e 76 11 2c 3f 37 da 58 3e c8 22 9c 3e
       0.3550653 0.67214143 0.21176992 0.30495286
000280 06 9d 7b 3e b6 fc c3 3e 5d 8b 81 3f 75 23 f3 3f
       0.24571618 0.3827874 1.0120655 1.8995196
000290 89 81 d6 3f b0 c4 00 bf b4 52 39 3f 16 46 14 be
       1.6758281 -0.5030012 0.7239182 -0.1447986
0002a0 75 bc ba bf 64 d8 e0 bf 73 d9 aa bf c2 62 02 be
       -1.4588763 -1.7566037 -1.334761 -0.12732986
0002b0 6e 05 85 be c3 68 80 be 3b 47 a1 bd 14 fa 05 be
       -0.25980705 -0.25079927 -0.07874914 -0.13083678
0002c0 06 35 99 be fd 73 86 be 7f 21 eb bd 29 f6 aa be
       -0.29923266 -0.26260367 -0.11480998 -0.3339093
0002d0 9e ec 41 3f f7 c9 10 c0 66 37 d2 bf 13 a8 fa 3f
       0.75751674 -2.262327 -1.6423156 1.9582542
0002e0 e4 c1 5d 3e 53 31 e3 bf 8a 2f 0a 40 3a f5 b8 3f
       0.21655995 -1.7749428 2.1591516 1.4449837
0002f0 38 a2 26 bf a8 65 33 be 1a 1e 64 bf f9 52 4f bf
       -0.65091276 -0.17519248 -0.8910843 -0.8098598
000300 a8 5c a1 bd 6b 2b f1 be 3a 97 1b 3e 9f 0b 30 bf
       -0.07879001 -0.47103438 0.15194407 -0.6876773
000310 a8 b5 44 bf 42 83 15 be ed 09 a6 bf ef 69 05 3d
       -0.76839685 -0.14600852 -1.2971779 0.03257173
000320 0f 18 13 3f 44 a9 e7 be 1a 2c 0a be 6f b4 02 3f
       0.57458586 -0.45246327 -0.13493386 0.5105657
000330 91 58 2e bf 2a 0c bb bf 1f 99 e2 be dc 3c a5 3e
       -0.6810389 -1.4613087 -0.44257447 0.32272995
000340 31 65 9c 3e 06 f8 cf 3e 13 4d 3f 3e ef c0 9b 3e
       0.30545953 0.40618914 0.18681745 0.30420634
000350 50 e2 af 3e cb 16 f7 bd 1f 4f e5 3d de b1 60 3e
       0.3435235 -0.12064894 0.11196732 0.21942851
000360 ce 0f b4 bd 68 cb 04 bf e0 18 d3 be f9 b4 a6 be
       -0.08792077 -0.51872873 -0.41229916 -0.32559946
000370 b2 74 fc be 87 a0 8e be 3e f1 6c be b4 63 bb be
       -0.4930778 -0.27856848 -0.23138902 -0.36599505
000380 d1 0c 95 be 0b 2a 8c be b7 69 e6 be 03 a8 ab be
       -0.2911134 -0.27375826 -0.4500253 -0.3352662
000390 68 95 23 bd 08 ed 4a be 12 5a 9c be 0d cf a7 3e
       -0.039937407 -0.19816983 -0.30537468 0.32775155
0003a0 a9 84 39 3e ca 72 2d bd a2 ab 5c be eb 72 ab be
       0.18117012 -0.0423458 -0.21549848 -0.33486113
0003b0 ed 02 f8 be cb 69 bd be 05 22 20 bf c2 5d 11 bf
       -0.48439732 -0.36994776 -0.6255191 -0.5678369
0003c0 4b 32 28 bf 36 1d 12 bf b7 65 08 bf 2b 57 f5 3e
       -0.6570174 -0.5707582 -0.53280205 0.47918066
0003d0 d1 40 bd 3e 32 ab c5 3e 22 2a eb 3e e8 d7 93 3e
       0.36963513 0.38607174 0.45930582 0.2887566
0003e0 43 49 b5 3e ec 63 84 3e 84 4d 00 3e a2 b1 7e 3e
       0.35407457 0.25857484 0.1252957 0.24872449
0003f0 ee c1 a5 3e 38 66 4f 3e 1d d8 4a 3e a9 29 00 3f
       0.3237452 0.20253837 0.19809003 0.5006357

bias f4 [32]
000000 a5 47 e7 be 14 49 6e bd 6a 8b bb 3c 05 30 71 bc
       -0.45171848 -0.05817516 0.022893626 -0.014720921
000010 46 68 06 3f 57 51 2e 3f 11 7c 80 be 34 a1 30 3f
       0.5250286 0.68092865 -0.25094655 0.68995976
000020 3c 34 fe 3d a6 99 b5 be 3c 85 1c 3d ba f4 62 3f
       0.12412307 -0.35468787 0.038213 0.88654673
000030 58 5d 20 bf 63 98 45 3f 11 b8 31 3f 67 03 53 be
       -0.6264243 0.7718565 0.6942149 -0.20606767
000040 98 c1 fb be 98 2b 5c be 00 fa 55 3d 81 25 f5 3e
       -0.49171138 -0.21501005 0.05224037 0.47880176
000050 e8 97 50 3e 2e a9 29 3f 0a c0 25 3f da 63 a0 be
       0.20370448 0.6627377 0.64746153 -0.3132618
000060 e3 51 2e 3f 5a f1 3c 3f 33 09 28 3f 72 4f 3d 3d
       0.680937 0.73805773 0.65639037 0.046218343
000070 58 64 0b bd 8b 06 36 3f 4f d7 00 bf 5d 02 95 3e
       -0.034031242 0.71103734 -0.50328535 0.29103366

weight f4 [64, 32, 1, 1]
000000 86 b3 ad 3d 29 f2 3a 3d ed 84 00 3d c0 07 e6 3d
       0.08481507 0.0456411 0.031376768 0.11231947
000010 6d 4d 76 bd 0f 31 2f 3d e2 98 14 bd 8f f7 c8 3d
       -0.060132433 0.042771395 -0.036278613 0.09812843
000020 73 2b 15 3d ea 91 3a 3d ba 7d 1a be 44 e9 c0 3c
       0.03641839 0.04554931 -0.15087023 0.02354873
000030 57 ba e8 3d 46 4e 37 3e e7 4a 59 bd ce 3c 0d be
       0.113636665 0.17900953 -0.053049948 -0.13792726
000040 2d f3 cf 3d 09 e5 57 bd 26 24 01 be e1 4b 64 3d
       0.10153804 -0.05270866 -0.12611446 0.055736426
000050 cf 68 46 3e da 2e 36 3e 7f 44 37 3d 0d fd 8c bd
       0.19375919 0.1779131 0.044743057 -0.06884203
000060 3c 73 6f bd 29 25 85 3c 25 ff c7 bd 13 63 78 be
       -0.058459505 0.01625307 -0.09765462 -0.24256544
000070 1a a9 d4 3d b9 7c 33 3e 05 c9 0a 3d 95 dd 1b 3d
       0.10383816 0.17528047 0.033883113 0.038053114
000080 e3 8d b5 3c 19 42 26 3e 92 ad 38 bd 08 eb 33 3c
       0.022162383 0.16236152 -0.045087405 0.010981329
000090 3e 5c 81 3c e9 6e d4 bc b6 42 13 bd c6 ba e2 3a
       0.015791055 -0.025931792 -0.035952292 0.0017298094
0000a0 a7 8e 91 bb f6 c7 fd 3d 58 ae b4 3d e0 51 81 3d
       -0.0044420543 0.12391655 0.08822316 0.063144445
0000b0 95 d7 1f 3e 97 83 f8 3d 27 ed b9 bc 71 a3 1d be
       0.15609582 0.12134474 -0.02269609 -0.15394379
0000c0 70 5d 2e 3d 18 71 6e be 84 30 c6 bd 8b 40 e0 bd
       0.042569578 -0.2328533 -0.09677222 -0.109498106
0000d0 67 59 a3 bd c7 b7 c7 bd 7e 6f ee 3c 36 4b 1c bd
       -0.079760365 -0.097518496 0.029105898 -0.038157664
0000e0 99 83 b7 bd 0a 01 68 3e e7 21 a8 bd e6 36 84 3b
       -0.08960647 0.22656646 -0.08209591 0.0040348647
0000f0 f5 38 d2 3d 60 f8 95 bd fb 34 5a bd 4b ee 9f bd
       0.1026477 -0.073227644 -0.053273182 -0.07809123
000100 d5 0f 07 be eb 26 9b bd c3 22 37 3d 70 c3 4c be
       -0.13189633 -0.075757824 0.044710886 -0.19996428
000110 5c f7 3a bd 82 d8 67 be 11 10 21 bd 18 1f fb 3d
       -0.045646057 -0.22641185 -0.039321963 0.1226179
000120 7a f0 7f be 00 fb 43 3d a1 a8 e9 bd 6e 62 84 bd
       -0.24994078 0.047846794 -0.114091165 -0.064640865
000130 1c 8b 79 3d 4c eb c2 bd a2 e1 8c 3c f6 c1 45 bb
       0.06092368 -0.095175356 0.017197434 -0.0030175424
000140 7e 49 a1 bd a1 f2 65 bd c5 cd bc bb 1f 5a 88 bd
       -0.07875346 -0.056139592 -0.0057618343 -0.06657814
000150 11 f8 46 3d 4f 0c 86 bd dc cb db bd 63 a3 a9 3d
       0.04857642 -0.065453164 -0.107322425 0.08283117
000160 ce 1e 81 bd 82 28 d5 bc e0 69 45 3c 87 5f 5a 3d
       -0.06304704 -0.026020292 0.012049168 0.05331376
000170 30 03 2a 3e ab a6 33 3e a4 d5 69 3d bd 97 48 be
       0.16602778 0.17544048 0.05708851 -0.19589134
000180 9a 33 0e be 19 0f 35 3d 61 d0 4b bd 6c 8e 37 be
       -0.13886872 0.04420385 -0.049759272 -0.17925423
000190 e5 9b 97 3d 57 91 0c be bb 4a 0e 3d 6b 57 a6 3d
       0.074027814 -0.13727318 0.034739237 0.081221424
0001a0 02 65 56 3d 2b 73 ce bc 60 16 d7 bd 12 11 40 3e
       0.052342422 -0.0252014 -0.105023146 0.18756512
0001b0 de 3e c9 bd b1 45 1f 3e 10 f5 f4 3d a3 b4 ad 3c
       -0.09826444 0.15553929 0.119608045 0.021204298
0001c0 1c dc 06 3d 7a cc c9 bc bc ac 67 3d 48 74 7e 3d
       0.032924756 -0.024633635 0.056561217 0.062122613
0001d0 8a a9 b2 bb 5e 55 78 3e ab a6 6f 3b 6b 9e db bb
       -0.0054523395 0.24251315 0.0036567848 -0.0067022345
0001e0 24 42 af bd d9 1c 1d 3d 40 1e 12 be f9 8d 84 bd
       -0.08557537 0.03835759 -0.14269352 -0.06472392
0001f0 00 ca 6f 3d f1 08 11 bd 6a dc 14 3e da ca e7 bd
       0.05854225 -0.035408918 0.14537206 -0.11317988
000200 71 14 67 3e 5d ab 6d bd 2d ea ab 3d a2 3b 8a 3d
       0.22566392 -0.058024753 0.08394275 0.06749655
000210 dc b1 8a bd 21 a0 ef 3c 3d 8a 23 bc 64 a5 6c 3e
       -0.06772205 0.02925116 -0.009981689 0.23109967
000220 79 db 08 be 68 4c 2e 3d e9 2f b8 bd 67 98 71 3d
       -0.13364972 0.042553335 -0.08993513 0.058983233
000230 9b 44 bb 3d 4c a7 6a 3c e4 1a 2d bc 3d 96 b8 3d
       0.09143945 0.014322113 -0.010565493 0.09013031
000240 b9 c3 d3 3c da 1e 59 3e b6 5f 0e bd 4e 7b 4e 3c
       0.025850164 0.21203175 -0.034759246 0.01260264
000250 89 ff 79 3c a2 3e a5 3c d9 d4 8e be 6a 18 a9 3c
       0.015258678 0.020171467 -0.27896765 0.020641524
000260 d6 8d 3a 3c 90 03 1e bd f1 2a b4 bd 59 cc e1 3c
       0.011386355 -0.038577616 -0.08797253 0.02756326
000270 e0 c7 da bd 9f 58 b8 bd 61 5b cf 3d 55 b7 40 be
       -0.106826544 -0.09001278 0.10124851 -0.18819936
000280 d6 17 70 bb 72 82 10 3e 52 19 55 3d d6 d7 30 bd
       -0.00366353 0.14112261 0.0520261 -0.043174587
000290 48 06 0a 3e 33 db 19 3e 41 0e 21 3d 5e 7f 42 bd
       0.13478959 0.15025024 0.039320234 -0.047484748
0002a0 94 24 47 3d e6 f9 a9 3d ef 30 00 3c 32 50 ce 3d
       0.048618868 0.082996175 0.007824167 0.1007389
0002b0 d4 b4 3b bd e4 6a 7a 3d 73 80 f6 3d 77 c2 16 3d
       -0.045826748 0.061137095 0.120362185 0.03680655
0002c0 2f f4 3e bd 46 81 24 be f9 96 bd bc e3 08 e6 bc
       -0.04661959 -0.16064939 -0.023143278 -0.02808041
0002d0 dd 51 c8 3c 48 5a 3a bd 76 af fa ba 3f b1 db 3d
       0.024453098 -0.045496255 -0.0019125778 0.107271664
0002e0 12 9f a1 bd 99 18 23 be 50 68 06 bd b0 2b e9 bd
       -0.078916684 -0.15927352 -0.032814324 -0.11385286
0002f0 ab 84 a7 3d ee 09 da bd b3 b2 ca 3d 4f 5f a4 be
       0.08179601 -0.10646425 0.098973654 -0.32103965
000300 7a a7 9a bd c5 35 32 bb 4a 66 db bc 99 5d 06 3e
       -0.07551475 -0.0027192694 -0.026782174 0.13121642
000310 47 64 0d be f2 ae a5 bd f0 59 0c be 8f c0 c5 3d
       -0.13807784 -0.08090009 -0.13706183 0.09655868
000320 f3 86 86 be de 33 67 3d a1 42 0d be 3c 9d 9a 3d
       -0.26274833 0.05644595 -0.13794948 0.07549521
000330 c7 bf 35 be a4 27 dd bd 9f 57 1c 3d fd 8d 03 3e
       -0.17748939 -0.107985765 0.0381695 0.12847133
000340 69 92 c5 bd 6b 0f 3a be 52 49 98 bd 5c f6 a2 bd
       -0.09647066 -0.18169944 -0.0743586 -0.079571456
000350 3c 0b 07 bd 64 49 92 3d 56 fb 9c 3d db 90 a9 3d
       -0.0329697 0.071429044 0.07665126 0.08279582
000360 9e 06 07 3e 80 af 97 bd 1c 4d 32 3b 65 2d cb 3c
       0.13186118 -0.07406521 0.0027206605 0.02480192
000370 fc c6 6c 3d 21 e7 92 3b 9f ef de 3d f4 e3 13 3e
       0.057806954 0.004483119 0.10885548 0.14442426
000380 90 49 fc bc a4 8d d0 bd fb c3 e2 bd 00 43 b9 3c
       -0.030796796 -0.10183266 -0.110725366 0.022614956
000390 b0 f2 e4 bd d0 0a 24 3e 57 8f 8a bd fe a5 8d 3c
       -0.111791015 0.1601975 -0.06765621 0.017291065
0003a0 09 13 8e bd 9b 7c 8f bb 75 9d dd bd 9d 73 97 3d
       -0.069372244 -0.004378868 -0.10821048 0.07395098
0003b0 c4 57 d9 bd 11 b1 3c 3d d2 ec e3 bd 2d 31 b9 3c
       -0.10612443 0.0460673 -0.11129154 0.022606457
0003c0 ff 5f bd 3d 8e 8e 74 be 6c 5a c4 3c c6 75 08 be
       0.092468254 -0.23882505 0.023968898 -0.13326177
0003d0 ac 5b 86 3d 2e 11 e2 ba 2c 0c 5e 3b 5c 9b 7c bd
       0.06560454 -0.0017247552 0.0033881767 -0.0616716
0003e0 2d 3b 04 be b4 7a bc bd 0d 40 d8 3c 42 e0 16 be
       -0.12913199 -0.09203091 0.02639773 -0.14733985
0003f0 5f d7 ea 3d 50 4f 3e ba 7c 77 94 3d 99 d1 33 3e
       0.1146686 -0.0007259743 0.07249352 0.17560424

weight f4 [64]
000000 52 f2 c1 3e 6d 21 4f 3e e3 51 97 3e 8d a9 c3 3e
       0.37880188 0.20227595 0.29554662 0.38215294
000010 08 9b 9a 3e 6e 2e 5c 3e a9 3d 70 3e 20 9e c9 3e
       0.30196404 0.21502087 0.23461021 0.39378452
000020 83 97 22 3f f9 dc 0e 3e 33 ff 3c 3f 73 b3 b2 3e
       0.6351244 0.13951482 0.73826903 0.34902534
000030 91 6c b2 3e 02 e5 b1 3e 68 20 dd 3e ba b0 a0 3e
       0.34848455 0.34745032 0.43188787 0.31384832
000040 01 d8 de 3e b8 9e 1a 3e 2b ff 96 3e b2 a8 6b 3e
       0.43524173 0.15099609 0.29491553 0.23013571
000050 50 d6 a9 3e 18 e1 a3 3e 92 37 bb 3e c0 e2 c4 3e
       0.3317132 0.3200767 0.36565834 0.38454247
000060 1a 7a 04 3f 47 7f 3b 3f 2a 08 64 3e c8 9c de 3e
       0.5174881 0.73241085 0.2226874 0.4347899
000070 2f 70 9b 3e 79 93 96 3e 19 be 01 3f cf 26 07 3f
       0.30359027 0.29409388 0.5068069 0.5279359
000080 99 52 28 3f a3 7f 8a 3e 13 7f 08 3e fd 4d ad 3e
       0.65751034 0.27050504 0.13329725 0.33848563
000090 65 bb 98 3e 88 f8 53 3e 8e ff 2b 3d c8 f3 15 3e
       0.2983047 0.20700276 0.041991763 0.14643776
0000a0 49 b1 d9 3e ba ae b9 3e 6a 4d b5 3e ee 77 d7 3e
       0.4251807 0.36266118 0.35410625 0.42083687
0000b0 1e 5e 9b 3e f6 09 d6 3e 0d 46 01 3e 59 81 00 3f
       0.30345243 0.41804475 0.12624379 0.5019737
0000c0 9e f0 84 3e 08 58 ca 3e 88 8e 8a 3e 1f 09 c9 3e
       0.25964826 0.39520288 0.27061868 0.3926477
0000d0 8d 1c 4e 3e b0 66 f7 3e 4d 84 9e 3e 58 17 7a 3f
       0.20128079 0.48320532 0.30960312 0.9769187
0000e0 f5 4a d2 3e a1 39 59 3e e3 a4 4e 3e 06 a4 c3 3e
       0.41072813 0.2121339 0.20180087 0.38211077
0000f0 37 ab e2 3e 14 07 7c 3e fd 3e db 3d 41 91 ea 3e
       0.44271252 0.24612075 0.107053734 0.45813945

bias f4 [64]
000000 a0 dc 65 bc 49 91 f2 bc 79 b9 41 3e 33 ac ce bc
       -0.014029652 -0.029610293 0.18918408 -0.025228595
000010 2e 6a 64 bc 15 5e fc bc c6 be ae 3d 50 de a5 3c
       -0.013941331 -0.03080658 0.08532481 0.020247608
000020 52 ed 08 bb 48 4c e0 3c 3e 58 03 3d a9 15 f7 bd
       -0.0020893407 0.027380124 0.032066576 -0.12064678
000030 59 78 8e be 22 8a 6e bc 17 34 85 bd 41 53 2b be
       -0.27826193 -0.014559301 -0.06504076 -0.16730978
000040 d8 09 69 bd bb 03 21 bc 2e e9 3e be 3b 50 2e bd
       -0.056894153 -0.00982755 -0.18643638 -0.042556982
000050 02 02 53 3e 7c 11 73 bd 2d 5d b8 3d 39 dc 9f bd
       0.20606235 -0.059342846 0.09002147 -0.07805676
000060 f7 d4 c4 3c f4 27 7f 3b d7 3f 7a bc 56 99 b9 3d
       0.02402733 0.0038933726 -0.01527401 0.0906245
000070 72 0b 81 bc 6a 9f c2 bc a8 b1 ae 3c 42 d3 a5 be
       -0.015752528 -0.023757655 0.021324947 -0.3238774
000080 27 c5 a6 be b3 bd b9 3d 21 fb 38 3d 76 bd 1b 3e
       -0.3257229 0.090693854 0.04516137 0.15208992
000090 26 d7 fa 3c c5 84 7e bc 83 54 15 3e 85 aa aa bd
       0.030620169 -0.015534584 0.1458302 -0.08333305
0000a0 7d d8 94 3c 16 52 08 be fe 9f 6c be 51 a2 5e be
       0.018169636 -0.13312563 -0.23107907 -0.21741606
0000b0 af 06 71 3d 3d 57 4a be a8 0d 36 3d 0e 86 21 3e
       0.058844265 -0.19759841 0.044446617 0.15773794
0000c0 67 a6 31 3d f1 0f 1b bd 19 fe c9 bc ed 77 bd 3d
       0.043371584 -0.037857 -0.024657296 0.0925139
0000d0 0f a3 9f bc 1c 75 e8 3c c3 e5 54 be 02 6a f8 bd
       -0.019486932 0.028376155 -0.20790772 -0.121295944
0000e0 41 69 6c bd d0 bd f0 3c 2b 4c e0 bd c0 fd 77 3c
       -0.057717565 0.029387385 -0.10952028 0.015136182
0000f0 9a 2d 83 3b 09 12 d4 3d d0 98 7b 3d 63 74 59 3e
       0.004003239 0.103550024 0.06142503 0.21235804

running_mean f4 [64]
000000 c1 94 5e 3e 7f 64 fc 3b ab 19 43 be b7 32 74 3e
       0.21736433 0.0077024098 -0.1905276 0.23847471
000010 6c c8 05 bd b9 9f 82 3d f9 8d 8f 3c a5 86 2e be
       -0.03266184 0.06378121 0.017523753 -0.1704355
000020 4f 61 c2 bd 4d 51 a0 bd e7 05 fa 3d 96 8d 78 bd
       -0.094912164 -0.07828007 0.12208157 -0.060681902
000030 2d 7f a0 3d 5d fe 00 3e b0 bc aa 3c 91 b1 43 3c
       0.07836757 0.12597032 0.020841926 0.011944191
000040 95 24 85 3e d0 c2 51 be 66 a8 4d 3d 82 26 97 3e
       0.26004472 -0.20484471 0.050209425 0.29521567
000050 08 e2 80 3e 98 f4 aa be bd 3c 57 3e c9 b9 ac be
       0.25172448 -0.33389735 0.21019264 -0.33735493
000060 47 95 0f 3e 13 b0 96 3c 8f 00 bd 3d c6 bd 8d bd
       0.14021789 0.018394506 0.09228622 -0.06920962
000070 93 de bf bd e1 1f 83 3e 65 df fb bd 60 62 97 bd
       -0.093686245 0.2561026 -0.122984685 -0.073918104
000080 07 d3 cc 3d 11 62 8f bd f0 fb 93 bd 21 de 2d be
       0.10001188 -0.070011266 -0.07225788 -0.16979267
000090 cf 64 d2 bd 99 69 5f be c0 d9 29 be 3a db 3a bd
       -0.10273134 -0.21817626 -0.16586971 -0.045619227
0000a0 17 a9 58 be 4e 38 1f be da a3 54 bd 07 83 88 3d
       -0.21158253 -0.15548822 -0.051914074 0.066656165
0000b0 59 cb a2 bc 58 26 56 3e b2 c1 2d bd 88 da 70 be
       -0.019872354 0.20913064 -0.04242105 -0.23520863
0000c0 c4 a9 47 bd 20 79 15 3e e4 63 1c 3e 12 4a 45 be
       -0.048745885 0.14596987 0.1527248 -0.19266537
0000d0 24 87 af bd a5 88 7f 3e a4 65 6a be ff 91 d6 3d
       -0.08570698 0.2495447 -0.22890335 0.10477065
0000e0 98 0c bc be 07 33 06 3e bc 7f 0d 3e 01 eb 98 3e
       -0.36728358 0.13105403 0.13818258 0.29866794
0000f0 d6 c2 e9 bd ef d8 a1 be 8a a3 98 be 51 19 12 3e
       -0.11414115 -0.3161082 -0.2981227 0.1426747

running_var f4 [64]
000000 1c e7 01 3d 95 56 06 3d 8a df 51 3d 7d 79 6e 3d
       0.031714544 0.032797415 0.051238574 0.05822133
000010 fc 20 5c 3d 71 b7 1b 3d 99 0f 53 3d 44 dd 0e 3d
       0.053742394 0.03801674 0.051528547 0.034878984
000020 73 7e 4f 3d 25 1d 96 3c 65 e6 1d 3d bd c9 40 3d
       0.0506577 0.018324444 0.0385498 0.047067393
000030 14 cf 8a 3c 65 74 3d 3d ba 93 f8 3c 4b 38 89 3c
       0.016944446 0.04625358 0.030343879 0.016750475
000040 c7 b9 5b 3d ed 92 2d 3d f9 89 5e 3d b3 51 83 3c
       0.053643968 0.042376447 0.0543308 0.016030168
000050 26 fe 7b 3d ad 2b c2 3c 65 fe d6 3c 67 d5 53 3d
       0.06152167 0.023702467 0.026244352 0.05171719
000060 ee 49 69 3c 9c ec 5e 3c 9f 9f 1b 3d 76 94 2b 3d
       0.014238818 0.013606217 0.037994023 0.04188963
000070 e0 88 a8 3c 01 c1 6e 3d 2f ba ff 3c 7c 49 74 3d
       0.02057308 0.05828953 0.031216709 0.059640393
000080 6c f7 93 3d 5b 51 08 3d 0d 6b 09 3d a2 ad b4 3c
       0.07224926 0.03328071 0.033549357 0.02205545
000090 46 db 1e 3c f8 f1 41 3d a5 67 ec 3c 7f ce 70 3d
       0.009695834 0.0473499 0.028858015 0.05879068
0000a0 d0 2e 42 3c ee 4b b6 3c 31 16 92 3d 4c 57 91 3c
       0.011851981 0.022253003 0.07133139 0.017741822
0000b0 b8 55 5b 3c 25 7e 3a 3d ee d4 2f 3d 55 5b 8b 3c
       0.013387136 0.045530457 0.042927675 0.017011324
0000c0 ed 36 ef 3c e8 26 e5 3c 55 bb fc 3c 09 b1 a5 3d
       0.029200995 0.027972654 0.030851046 0.080904074
0000d0 f3 96 85 3d 89 48 26 3d 4a 82 c9 3c e8 98 d2 3c
       0.06522932 0.04059652 0.02459826 0.025707677
0000e0 33 1c 41 3d f5 10 cc 3c 8e dc 87 3d 4c 13 23 3e
       0.047146033 0.02491043 0.06633864 0.1592533
0000f0 ed 03 06 3c b4 8c 9b 3d ca dc ce 3c 1b 52 d8 3c
       0.008179647 0.07595196 0.025251765 0.026406338
