data/preload_bak/net_encode.pt (torch, 47356 bytes, 21 tensors)

weight f4 [3, 1, 3, 3]
0	0x3d55c8fb	0.052193623
1	0x3e1b4ce0	0.15166044
2	0x3d50486d	0.05085032
3	0xbd9c3233	-0.07626762
4	0x3e506c35	0.20353778
5	0x3dbd3865	0.09239272
6	0x3dd9dabc	0.106374234
7	0x3dff8c51	0.12477935
8	0x3a79b76c	0.0009525928
9	0xbe19a601	-0.15004732
10	0xbc9bcaa3	-0.019017523
11	0xbc9ec2e5	-0.019380042
12	0xbe18594c	-0.14877814
13	0xbd893859	-0.067002006
14	0x3d668c24	0.056285992
15	0xbe3b687e	-0.1830158
16	0xbe7a83ef	-0.24464391
17	0xbe0e7e7b	-0.13915436
18	0x3dacb5d9	0.08433122
19	0xbea9fe3e	-0.33201784
20	0xbd3d91a4	-0.04628147
21	0x3be113e4	0.006868826
22	0xbf286639	-0.6578098
23	0xbe725776	-0.23666176
24	0xbdc1bb79	-0.09459586
25	0x3d346894	0.044045046
26	0x3e261b4a	0.16221347

bias f4 [3]
0	0x3ded9047	0.11599784
1	0x3bd8ff28	0.006622214
2	0xbd28524c	-0.04109411

weight f4 [16, 3, 1, 1]
0	0xbd5cda97	-0.0539194
1	0xbe81aef7	-0.253288
2	0x3e536afa	0.20646277
3	0xbe8d42e0	-0.27590084
4	0x3d25f060	0.040512443
5	0x3c86888d	0.016422534
6	0x3e714c8b	0.23564355
7	0x3e28c2a4	0.164805
8	0x3d39a18c	0.04532008
9	0x3e03dd61	0.12877418
10	0xbde04dca	-0.10952337
11	0x3e8f5f22	0.28002268
12	0xbe386691	-0.18007876
13	0x3d0dbd21	0.034604196
14	0x3df5ee0b	0.12008294
15	0xbe3e8faa	-0.18609491
16	0xbdfed41e	-0.12442802
17	0xbe23dca4	-0.16002136
18	0x3d688dc6	0.05677583
19	0xbe541608	-0.20711529
20	0xbebbb7e7	-0.36663744
21	0xbdc079c1	-0.09398223
22	0x3e5c69e8	0.21524775
23	0x3df0fd1b	0.11767026
24	0xbe3f8594	-0.187033
25	0x3e562449	0.20912279
26	0x3d007521	0.031361703
27	0xbd9a51bf	-0.07535123
28	0x3e14011b	0.14453547
29	0x3e80a5e8	0.25126576
30	0x3e713618	0.23555791
31	0xbc3629cc	-0.011118364
32	0x3e168644	0.14699656
33	0x3c9ca542	0.01912177
34	0x3d865aca	0.065602854
35	0xbe928e71	-0.286243
36	0xbe4e5b7b	-0.20152085
37	0xbe708602	-0.2348862
38	0x3e2fd6fd	0.17171855
39	0x3f01c5bb	0.5069234
40	0x3dad616d	0.08465848
41	0xbd9fa8ae	-0.07795845
42	0xbd1b4d45	-0.037915487
43	0xbf3148c7	-0.69251674
44	0xbd7f377d	-0.062308777
45	0x3e455772	0.19271639
46	0x3e7cfb94	0.24705344
47	0x3dcb6199	0.09930725

weight f4 [16]
0	0x3dee8ae7	0.11647587
1	0x3e27b0bc	0.16376013
2	0x3e8a9237	0.27064678
3	0x3e413695	0.18868478
4	0x3f4464e8	0.7671647
5	0x3e3af8df	0.18259
6	0x3e9a489f	0.3013353
7	0x3df31183	0.118685745
8	0x3ecedbda	0.40402108
9	0x3e979d30	0.29612112
10	0x3f44c232	0.7685882
11	0x3e63d52d	0.22249289
12	0x3e8570ca	0.26062614
13	0x3f87ed76	1.0619342
14	0x3e8cf6a6	0.27531928
15	0x3e36af41	0.17840292

bias f4 [16]
0	0x3d40df5b	0.04708801
1	0x3c0decb0	0.008662388
2	0xbdedd1fe	-0.116123185
3	0x3e96f759	0.29485586
4	0x3ebab916	0.36469334
5	0x3c1b5e6b	0.00948296
6	0xbe83c656	-0.25737256
7	0x3db1578f	0.086592786
8	0x3ec4c50b	0.38431582
9	0x3e6f8bfb	0.23393242
10	0x3d173310	0.03691393
11	0xbe38fb31	-0.18064572
12	0x3e0272b5	0.1273907
13	0x3dfc6aac	0.123250335
14	0xbe3ff5c6	-0.18746099
15	0xbcb74870	-0.022373408

running_mean f4 [16]
0	0xbcd1df20	-0.02561909
1	0xbd9bd2bb	-0.07608553
2	0x3e0982ed	0.1342885
3	0x3dbfc4bb	0.09363695
4	0xbc854ea0	-0.016272843
5	0xbe0f4a58	-0.13993204
6	0xbe0f638d	-0.1400282
7	0x3d7125f2	0.058874078
8	0x3afa9960	0.0019119196
9	0x3dad2e71	0.084561236
10	0x3def9939	0.11699147
11	0xbd6d5025	-0.05793776
12	0xbda2f9e8	-0.07957822
13	0x3e2c01bc	0.16797537
14	0xbe596687	-0.21230517
15	0x3e20d657	0.15706764

running_var f4 [16]
0	0x391177c1	0.0001387289
1	0x3c257a96	0.010100028
2	0x3a5d51b3	0.0008442655
3	0x3b03b179	0.0020094796
4	0x3c57b904	0.01316667
5	0x3b9941a1	0.004677013
6	0x3d8288d8	0.06373757
7	0x3ccfcd82	0.025366548
8	0x3cae8074	0.021301486
9	0x3d0a9eda	0.0338429
10	0x3a00b80c	0.00049102376
11	0x3c2c4325	0.010514055
12	0x3aec0928	0.00180081
13	0x3cac9c5f	0.021070657
14	0x3da5ebb0	0.081015944
15	0x3bfccbeb	0.0077147386

weight f4 [16, 1, 3, 3]
0	0x3f05a407	0.5220341
1	0x3f166a1e	0.5875567
2	0x3f4a7960	0.79091454
3	0x3e385385	0.1800061
4	0x3e98cc32	0.2984329
5	0x3f70669c	0.9390657
6	0x3ebe47fa	0.3716429
7	0x3f017310	0.50566196
8	0x3ed724ec	0.42020357
9	0xbf428114	-0.7597821
10	0xbe72bcdf	-0.23704861
11	0x3e457280	0.1928196
12	0x3bded3c8	0.0068001486
13	0x3ebf434b	0.37356028
14	0x3fb4c432	1.4122374
15	0x3e61c401	0.22047426
16	0x3ff34bee	1.9007547
17	0x3fdfb342	1.747658
18	0xbf154f73	-0.58324355
19	0xbfcd22ec	-1.6026282
20	0xbfb0f7ba	-1.38256
21	0x3e98eb9a	0.2986725
22	0xbf006367	-0.50151676
23	0xbf72c29a	-0.9482819
24	0x400617c2	2.0952
25	0x40077ed5	2.1171162
26	0xbd77ac72	-0.06046719
27	0x3e4f3303	0.20234303
28	0x3f2eddc8	0.6830716
29	0x3f28b204	0.6589663
30	0x3b82764c	0.0039813872
31	0x3ea50f29	0.3223813
32	0xbe1a340e	-0.1505892
33	0x3f01feee	0.50779617
34	0x3ede6b73	0.43441352
35	0x3ebe656a	0.37186748
36	0x3da3c493	0.07996478
37	0x3e216fe4	0.15765339
38	0x3ec25f67	0.3796341
39	0xbbba4ab8	-0.0056851767
40	0xbcdf5791	-0.027263435
41	0x3e26b2e5	0.1627918
42	0x3dc3f3e4	0.09568003
43	0xbde6f71d	-0.11277602
44	0x3d13d08c	0.036087558
45	0x3fa75aa7	1.307454
46	0x3f104ec0	0.5637016
47	0xbe8e90bc	-0.278448
48	0x3f04eaa0	0.5192051
49	0x3e1dd2af	0.154124
50	0xbda2ad3a	-0.079431966
51	0x3f256d8e	0.6462029
52	0x3f8b46cb	1.0880979
53	0x3f9d4ea0	1.228962
54	0xc015ef40	-2.3427277
55	0x402f800d	2.7421906
56	0x412d13b3	10.817309
57	0x404ecc21	3.231209
58	0x40f17fe2	7.5468607
59	0x407a1045	3.907243
60	0x3f2983b8	0.6621661
61	0x3fb11964	1.3835874
62	0xc0bf79dc	-5.9836254
63	0x3faaa07b	1.3330225
64	0x403e372f	2.9721181
65	0x402da3b2	2.7131162
66	0xbf5002a5	-0.81254035
67	0xbfbd90cc	-1.4809813
68	0x3f725eaf	0.94675726
69	0xc0044a32	-2.0670285
70	0xc073020e	-3.7970004
71	0xbffebe2a	-1.9901783
72	0x3fba4cad	1.455465
73	0x3f90fb71	1.1326734
74	0x3eccbc55	0.39987436
75	0x3fa34e36	1.2758243
76	0xbf7561b4	-0.9585221
77	0xbf78099a	-0.9688965
78	0x3e77c1c8	0.24195015
79	0xbfc75fcd	-1.5576111
80	0xbf5fbe76	-0.87399995
81	0x3eb29f6c	0.34887254
82	0x3eafac80	0.34311295
83	0xbe87f2f4	-0.26552546
84	0x3e513e00	0.20433807
85	0xbe76221c	-0.24036449
86	0xbefbf372	-0.49209172
87	0x3f84782a	1.0349171
88	0x3f1feb4e	0.6246842
89	0x3ebbe086	0.36694735
90	0xbebaabdd	-0.36459246
91	0xbeda3e8e	-0.4262585
92	0x3ca209f2	0.019780133
93	0xbca7a94c	-0.02046647
94	0x3c82a5ac	0.01594814
95	0xbd7e9fd2	-0.062164135
96	0xbce79380	-0.028268576
97	0xbe412583	-0.18861966
98	0xbe48d2a1	-0.19611599
99	0x4025456a	2.5823617
100	0x40d0bdbe	6.523162
101	0x408f41be	4.476775
102	0x3f281210	0.6565256
103	0x40840e6f	4.126762
104	0x403e3fff	2.972656
105	0xbecc497d	-0.39899817
106	0xbffb1906	-1.9617012
107	0x40072070	2.1113548
108	0x3eb98283	0.36232385
109	0x3eac227b	0.33620057
110	0x3ebf8569	0.3740647
111	0x3ddde435	0.10834543
112	0x3dd00c80	0.10158634
113	0xbe1233e2	-0.14277604
114	0x3e671fa1	0.22570659
115	0x3e4cef6a	0.20013204
116	0x3de27a7c	0.11058518
117	0x3ef9a0fc	0.48755634
118	0x3ee8eeb2	0.4549461
119	0xbdbcef50	-0.09225333
120	0x3e84cf76	0.2593953
121	0x3dbafde4	0.09130457
122	0xbecd5a77	-0.40108082
123	0xbe1ada40	-0.15122318
124	0xbebab11f	-0.36463258
125	0xbf23c630	-0.63974285
126	0x3ecf5173	0.40491828
127	0xc099c60b	-4.805425
128	0xc10f058b	-8.938853
129	0x3f28d4e3	0.6594984
130	0xbf54d85d	-0.83142644
131	0xbfc10c8a	-1.5081952
132	0x3f62c6b3	0.8858444
133	0x3f9a8ed3	1.2074836
134	0x3f7dcb75	0.99138576
135	0x3ea63186	0.32459658
136	0x3f9d25c6	1.2277153
137	0x3fb49902	1.4109194
138	0xbf37e203	-0.7182924
139	0xbdff63b2	-0.12470187
140	0x3f32a4dd	0.6978281
141	0x3f12601a	0.5717789
142	0x3f18e3d3	0.5972263
143	0x3f8d9d8d	1.1063706

bias f4 [16]
0	0x3b463f40	0.0030250102
1	0xbf0aab08	-0.5416722
2	0x3dbde396	0.09271924
3	0xbf8d26a0	-1.1027412
4	0xbf36dc33	-0.7142975
5	0xbe78cff2	-0.24298075
6	0x3d9be622	0.07612254
7	0x3ef58971	0.47956422
8	0x3e349142	0.17633536
9	0xbee540dd	-0.4477605
10	0x3f571271	0.84012514
11	0x3ea9da94	0.33174574
12	0xbe747ea3	-0.23876433
13	0x3f0574f7	0.521316
14	0x3e0ca6f7	0.13735567
15	0xbd588df4	-0.052869752

weight f4 [32, 16, 1, 1]
0	0xbddfba02	-0.1092415
1	0xbcd66bf1	-0.026174517
2	0xbd1d1b1a	-0.038355924
3	0xbd9d1c09	-0.07671363
4	0x3d4531db	0.04814325
5	0x3d0c44fd	0.03424548
6	0xbdbdf2af	-0.09274804
7	0x3e20e24a	0.15711322
8	0xbd6a83fe	-0.057254784
9	0xbe36c026	-0.17846736
10	0x3dc3a384	0.095526725
11	0xbddf82a4	-0.109135896
12	0xbd978520	-0.073984385
13	0x3e478fc9	0.19488443
14	0x3e2076bb	0.15670292
15	0xbde77f02	-0.11303522
16	0x3d9c7a2b	0.07640489
17	0xbc9bcc3e	-0.019018289
18	0x3e4ad790	0.19808793
19	0x3d81ec6c	0.06343922
20	0x3c724b88	0.014788516
21	0x3cb2c78e	0.02182367
22	0xbe340393	-0.17579488
23	0x3dc74bf9	0.097312875
24	0x3c8da231	0.017289253
25	0xbe04d09a	-0.129702
26	0x3e40da80	0.18833351
27	0xbc6dc7d1	-0.014512972
28	0xbe3ef5df	-0.1864848
29	0xbdf6232e	-0.12018429
30	0xbd34aa52	-0.044107743
31	0x3e036adf	0.12833737
32	0xbde4cc66	-0.111717984
33	0x3ccb0c0e	0.024786022
34	0x3a934ae0	0.0011237524
35	0x3d9ace2f	0.07558858
36	0x3d18e646	0.03732898
37	0x3d11a7a7	0.035560276
38	0xbd730d68	-0.059338957
39	0x3dada80a	0.084793165
40	0xbde0efa0	-0.10983205
41	0xbe1bf81a	-0.15231362
42	0xbd4379e6	-0.047723673
43	0xbde155d8	-0.110027015
44	0x3bde1b9d	0.006778194
45	0x3bb30fd9	0.0054645357
46	0xbd8ed988	-0.069750845
47	0x3e443da8	0.19164145
48	0x3d715a2c	0.058923885
49	0xbe334742	-0.17507651
50	0xbe7137d0	-0.23556447
51	0x3d0744ed	0.033024717
52	0x3e1452c0	0.14484692
53	0x3bcf33e8	0.0063233264
54	0x3d60eb93	0.05491216
55	0x3e0a3567	0.13496934
56	0xbd2a1726	-0.041525982
57	0xbc5857a5	-0.01320449
58	0xbdb09b7f	-0.086234085
59	0xbdab64b7	-0.08368819
60	0xbe1d3272	-0.15351275
61	0xbe16e8be	-0.14737222
62	0xbeb5f3d3	-0.35537586
63	0xbbddd0e0	-0.0067692846
64	0x3dbcdd3d	0.09221885
65	0xbd096792	-0.033546038
66	0x3e099d5d	0.13438936
67	0xbd63eda8	-0.05564657
68	0x3e77ec7e	0.24211308
69	0x3d6c3729	0.057669792
70	0x3ddddcb3	0.10833111
71	0x3d6103d7	0.054935303
72	0x3dafee98	0.0859043
73	0x3da60cc1	0.08107901
74	0x3d5f7091	0.05455071
75	0xba98d0ff	-0.0011658965
76	0x3b9f073f	0.0048531587
77	0x3c9a7dfe	0.018858906
78	0xbdcda1d6	-0.100406334
79	0xbe2c6fb9	-0.16839494
80	0x3d2e69fd	0.042581547
81	0x3dc4fdb5	0.09618703
82	0xbd0ceff5	-0.03440853
83	0xbe0703cd	-0.13185044
84	0x3dc16175	0.094424166
85	0xbe18cd88	-0.14922154
86	0xbe162b72	-0.1466501
87	0xbcb4943c	-0.02204334
88	0xbd6c1572	-0.05763764
89	0x3d84a4d2	0.064767495
90	0x3d38f092	0.0451513
91	0x3dfc9b05	0.12334255
92	0xbcae065d	-0.021243269
93	0x3c99926c	0.018746577
94	0xbe29708b	-0.16546838
95	0xbe568a30	-0.20951152
96	0x3d0446d4	0.03229411
97	0x3dd330ac	0.10312018
98	0x3de9d014	0.11416641
99	0xbd32fb86	-0.043696903
100	0x3e9be15b	0.3044537
101	0xbc9e673e	-0.01933634
102	0x3d0ee420	0.034885526
103	0x3e02bf1f	0.1276822
104	0x3d516c34	0.05112858
105	0x3dc7b4cb	0.097512804
106	0x3e622d56	0.22087607
107	0xbd5bb0c9	-0.053635392
108	0x3d3820a0	0.04495299
109	0xbd6d5edf	-0.057951804
110	0xbe24e185	-0.16101654
111	0xbd256e98	-0.040388674
112	0xbcd17594	-0.025568761
113	0xbc185429	-0.009297409
114	0xbb29cf60	-0.0025910959
115	0xbe2e1c10	-0.17002892
116	0x3d09f623	0.033682
117	0xbbacb610	-0.005270727
118	0xbd6f0abd	-0.05835985
119	0xbe47500f	-0.19464134
120	0xbe1f22ed	-0.15540667
121	0x3d728334	0.059207156
122	0x3e25d59d	0.16194768
123	0xbd669b00	-0.056300163
124	0xbd542394	-0.051791742
125	0xbe6d1ae2	-0.23154786
126	0xbe58b483	-0.2116261
127	0x3d98c0cf	0.0745865
128	0xbd11cba9	-0.035594616
129	0x3e1d65a5	0.15370806
130	0xbc2b8e6f	-0.0104709705
131	0xbd2c1544	-0.042012468
132	0x3e40aabf	0.18815134
133	0x3dbd9087	0.09256082
134	0xbda3a6ce	-0.079908
135	0xbdc2eb59	-0.09517545
136	0xbd4956da	-0.049155094
137	0x3e2ffaaa	0.17185465
138	0xbd0f14e1	-0.03493202
139	0x3dea86e3	0.11451509
140	0x3d5a5bc7	0.053310182
141	0x3d07a209	0.033113513
142	0xbca325f3	-0.019915557
143	0xbdfc2ea4	-0.123135835
144	0xbc9717fd	-0.018444056
145	0x3d8937ee	0.06700121
146	0xbce966b7	-0.028491361
147	0x3bc4f950	0.0060111657
148	0xbba28b18	-0.004960429
149	0x3d2fde4a	0.0429366
150	0x3e63c662	0.22243646
151	0x3cec0908	0.0288129
152	0x3dc66554	0.096872956
153	0x3dc21e77	0.09478467
154	0x3e0e3bf5	0.1389006
155	0x3d6980ed	0.05700772
156	0x3ca0c9fa	0.01962756
157	0x3e50a566	0.20375594
158	0x3d855f36	0.06512301
159	0xbd6c454f	-0.057683285
160	0x3be0b450	0.0068574324
161	0x3dcab7af	0.09898316
162	0x3daa7373	0.083228014
163	0xbd898c56	-0.0671622
164	0x3deb2c12	0.11483015
165	0xbd0519b4	-0.032495216
166	0xbe5aeb7b	-0.21378891
167	0xbd25bbbb	-0.040462237
168	0x3e2aecab	0.16691844
169	0x3e3fd94f	0.1873524
170	0xbbfa9ad7	-0.007647853
171	0xbda3f8f0	-0.080064654
172	0xbd3d682f	-0.046241935
173	0x3de9c628	0.114147484
174	0x3bc69031	0.0060596694
175	0x3e22e711	0.15908457
176	0xbe3d2ecb	-0.18474881
177	0x3d51ce01	0.05122185
178	0x3d83cf52	0.064360276
179	0xbdd9ec9e	-0.10640834
180	0xbd4ce523	-0.05002321
181	0x3e0b788f	0.13620208
182	0x3dd1d515	0.1024572
183	0xbd2d1135	-0.042252738
184	0x3e118a6b	0.14212959
185	0xbda7f084	-0.082001716
186	0xbc5713ce	-0.01312728
187	0x3e1bab5e	0.1520209
188	0xbc0073e1	-0.007840128
189	0x3c38ea81	0.011286379
190	0x3e371a35	0.17881091
191	0x3daea869	0.085282154
192	0x3d9f3672	0.077740565
193	0x3c8737dc	0.016506128
194	0xbd947be7	-0.07250195
195	0x3de48488	0.11158091
196	0xbe0c39a8	-0.13693869
197	0xbe17e94e	-0.14835092
198	0x3ece0b4d	0.40242997
199	0x3c383d6f	0.011245116
200	0xbcb15128	-0.021645144
201	0x3e2eafd4	0.1705926
202	0x3d718feb	0.05897514
203	0x3e66a400	0.22523499
204	0xbcb13cdf	-0.02163547
205	0xbe443c6b	-0.19163673
206	0xbda99893	-0.08281054
207	0xbc024ee0	-0.007953376
208	0xbe1fb9fc	-0.15598291
209	0xbe169836	-0.14706501
210	0xbdcb2378	-0.099188745
211	0xbcb8f08c	-0.02257564
212	0xbd681a2d	-0.05666559
213	0xbdb8213f	-0.08990716
214	0x3e239995	0.15976556
215	0x3e36153c	0.17781538
216	0xbbffc575	-0.007805521
217	0xbdb3682b	-0.08760103
218	0xbd1fb833	-0.038994025
219	0x3e3227be	0.17397973
220	0x3d84d1cb	0.06485327
221	0xbd174cf0	-0.036938608
222	0xbe32cebd	-0.17461677
223	0xbcdab6b2	-0.026698444
224	0xbcbdce95	-0.023169795
225	0x3e6b5ffe	0.22985837
226	0xbcada64a	-0.021197457
227	0x3e0bb2cf	0.13642429
228	0xbe3bf213	-0.18354063
229	0xbd894493	-0.067025326
230	0x3c9a3b05	0.01882697
231	0xbe2565f9	-0.1615218
232	0xbdeccc8c	-0.11562452
233	0xbc12f00d	-0.008968365
234	0xbdc27e55	-0.09496752
235	0x3dc4ba83	0.09605887
236	0xbc13c982	-0.009020211
237	0x3e0e3e6d	0.13891001
238	0xbdbbebdd	-0.09175847
239	0xbd74a37b	-0.05972622
240	0x3d9a3dd3	0.07531323
241	0xbd93ce7c	-0.07217118
242	0x3d845395	0.064612545
243	0xbde02b25	-0.10945729
244	0xbe37d8b0	-0.17953753
245	0x3d07c79e	0.033149354
246	0xbe145d33	-0.14488678
247	0xbdcfb3f1	-0.10141743
248	0x3e27bc0d	0.1638033
249	0x3e190a75	0.14945395
250	0x3d913968	0.070910275
251	0xbce3eb09	-0.027822034
252	0xbc92589b	-0.017864516
253	0xbdf7a683	-0.120923065
254	0x3d288efd	0.04115199
255	0xbd4b56bb	-0.04964326

weight f4 [32]
0	0x3e3dd2df	0.18537472
1	0x3ee1bbe2	0.44088656
2	0x3e8d44ee	0.27591652
3	0x3f0d1652	0.55112183
4	0x3e367dab	0.17821376
5	0x3edbc707	0.42925283
6	0x3efd9253	0.495257
7	0x3e5b2ef7	0.21404634
8	0x3f0f4323	0.5596182
9	0x3e4b42a4	0.1984964
10	0x3ea16477	0.3152196
11	0x3e844e77	0.25841114
12	0x3f0fb935	0.5614198
13	0x3f029190	0.5100336
14	0x3e8f024f	0.2793145
15	0x3e3a3720	0.18185091
16	0x3e51fa59	0.20505656
17	0x3ea30144	0.31836903
18	0x3e76b696	0.24093089
19	0x3ec0e8cc	0.3767761
20	0x3e08537e	0.133131
21	0x3e720a36	0.23636708
22	0x3e7906af	0.24318956
23	0x3eed6963	0.46369466
24	0x3e78c29b	0.24292986
25	0x3f0ce462	0.55035985
26	0x3e989dda	0.2980793
27	0x3ebefde6	0.37303084
28	0x3ee8b95b	0.45453915
29	0x3e86842a	0.26272708
30	0x3ecf68d6	0.4050967
31	0x3ed11d9d	0.40842906

bias f4 [32]
0	0x3db55f88	0.08856112
1	0xbd6eb5e3	-0.05827893
2	0xbe0bccfe	-0.13652417
3	0x3e2eb2fd	0.17060466
4	0x3d80e041	0.06292773
5	0x3d16ce05	0.03681757
6	0xbd7f2ef9	-0.062300656
7	0x3e1833b7	0.14863478
8	0x3e581107	0.21100245
9	0x3c8619c9	0.016369717
10	0x3e0778b7	0.13229643
11	0x3af57470	0.0018726718
12	0x3e32c772	0.17458895
13	0x3c8601d0	0.016358286
14	0x3daa82fd	0.08325765
15	0x3d4cdae3	0.050013434
16	0xbc250db0	-0.010074064
17	0xbdb55537	-0.08854144
18	0x3e3d982e	0.18515083
19	0x3d414403	0.047184
20	0x3d84496f	0.06459319
21	0x3c42845e	0.011872379
22	0x3da6ae5c	0.08138725
23	0xbc163041	-0.009166778
24	0x3dbdcf66	0.09268074
25	0x3dad4658	0.08460683
26	0x3cbbfe25	0.022948334
27	0x3cfa41d8	0.030548975
28	0x3d5b10c0	0.05348277
29	0x3d9bb9e4	0.07603815
30	0x3df5e9b7	0.12007468
31	0x3d441d0e	0.04787927

running_mean f4 [32]
0	0x3d6e9c4f	0.058254536
1	0x3e0009a2	0.12503675
2	0xbd1192ca	-0.03554038
3	0xbe6e0790	-0.23245072
4	0x3d7d8dee	0.061902933
5	0xbdd1b8be	-0.10240315
6	0x3e23485d	0.15945573
7	0xbe25daae	-0.16196701
8	0x3c835fee	0.016036954
9	0x3e63bd73	0.22240238
10	0x3e250a36	0.16117176
11	0x3da82f8a	0.08212192
12	0xbc788ec0	-0.015170753
13	0xbe06d038	-0.13165367
14	0xbddb930c	-0.10721406
15	0x3cee73d6	0.02910797
16	0xbdcc80b7	-0.09985488
17	0x3d7259f4	0.059167817
18	0x3aa94140	0.0012913123
19	0x3d97d289	0.07413203
20	0xbc49fdb8	-0.012328558
21	0xbe86f8e6	-0.2636177
22	0x3d349c45	0.044094343
23	0x3e42776e	0.18990871
24	0xbdde6456	-0.10858981
25	0x3cc6f633	0.024287319
26	0xbe594596	-0.21217951
27	0x3dc28e66	0.094998166
28	0xbe2c7db6	-0.1684483
29	0x3d916bfc	0.071006745
30	0x3c613e27	0.013747728
31	0xbe44c915	-0.19217332

running_var f4 [32]
0	0x3c774837	0.015092901
1	0x3bad2780	0.00528425
2	0x3b907d64	0.004409479
3	0x3d6a0652	0.057134934
4	0x3c1b761d	0.00948861
5	0x3c5930a4	0.013256226
6	0x3c2431b3	0.010021615
7	0x3baf3f18	0.0053480975
8	0x3b84793f	0.004042774
9	0x3c2f8b0e	0.010714306
10	0x3d87ba62	0.066273466
11	0x3b739735	0.0037168984
12	0x3b7dc611	0.0038722793
13	0x3d92b0e4	0.071626455
14	0x3bac8a69	0.005265523
15	0x3ba08c46	0.0048995344
16	0x3bebffbf	0.007202118
17	0x3b4c3bcf	0.0031163578
18	0x3babb5e3	0.0052401884
19	0x3c1131ef	0.008862003
20	0x3bae59c4	0.0053207595
21	0x3cf81ccd	0.03028717
22	0x3d4a8ccc	0.04945068
23	0x3c9bb5e9	0.01900764
24	0x3b9005d3	0.0043952256
25	0x3c94c9e3	0.018162673
26	0x3c1e20c6	0.0096513685
27	0x3bf55c1d	0.0074877874
28	0x3ca4c22a	0.020112116
29	0x3b30ff4a	0.0027007633
30	0x3b4123aa	0.002947072
31	0x3d24a79b	0.040198904

weight f4 [32, 1, 3, 3]
0	0x3e2e0dec	0.16997498
1	0x3f05f647	0.52328914
2	0x3f1dd37a	0.6165081
3	0x3f10ecf3	0.56611556
4	0x3eec3658	0.4613521
5	0x3e39865d	0.18117662
6	0x3f298840	0.66223526
7	0x3f502559	0.8130699
8	0x3f294789	0.6612478
9	0x3e4e0d15	0.20122178
10	0x3e8beead	0.27330533
11	0x3da94bd0	0.08266413
12	0x3e968d2a	0.29404575
13	0x3e8cc968	0.2749741
14	0x3e12e845	0.14346416
15	0x3eb99199	0.36243895
16	0x3dc47446	0.0959249
17	0x3d46af8d	0.048507262
18	0x3f51ca52	0.8194934
19	0x3fab1ec0	1.3368759
20	0x3e07ff9b	0.132811
21	0x3f00b204	0.5027163
22	0x3f5e72c9	0.868939
23	0x3f0cc32c	0.5498531
24	0x3f2530d6	0.6452764
25	0x3ee07c05	0.4384462
26	0x3dc69d0e	0.096979246
27	0xbf2c4a72	-0.67301095
28	0x3f02f341	0.51152426
29	0x3f3a28e9	0.72718674
30	0xbfe167c5	-1.7609793
31	0xbc71a9e5	-0.014749979
32	0x3fa0af1f	1.2553443
33	0xbff7b88b	-1.9353193
34	0x3e2a732a	0.16645494
35	0x3fede862	1.8586543
36	0xbf2dc810	-0.67883396
37	0xbfa8b5b7	-1.3180455
38	0xbeaaf536	-0.33390206
39	0xbf4b7298	-0.7947173
40	0x3d136585	0.03598549
41	0xbea37821	-0.3192759
42	0xbe831a43	-0.25605974
43	0xbf172e75	-0.5905526
44	0x3e16ff65	0.14745863
45	0xbe8c7fa5	-0.27441135
46	0xbd4d2ffa	-0.050094582
47	0xbe4af9f8	-0.19821918
48	0xbed6740e	-0.41885418
49	0xbcbbdcb2	-0.022932384
50	0xbeccf666	-0.40031737
51	0xbf403404	-0.7507937
52	0xbea9772a	-0.33098727
53	0xb8742000	-5.8203936e-05
54	0x3f23bb3f	0.6395759
55	0x3f160879	0.5860668
56	0xbdbbef06	-0.091764495
57	0x3f53fd5c	0.8280847
58	0x3f074c89	0.5285116
59	0x3de0c75a	0.10975523
60	0x3f0d7098	0.5524993
61	0x3c773ada	0.015089715
62	0xbdf683ea	-0.12036879
63	0xbd8c0fa2	-0.06838919
64	0xbecf9d99	-0.40549925
65	0xbf2fbdcf	-0.68649
66	0xbcfb28d6	-0.03065912
67	0xbefe9961	-0.49726394
68	0xbed36479	-0.41287592
69	0x3e78f4e2	0.24312165
70	0xbf264eeb	-0.6496417
71	0xbf60b37e	-0.87773883
72	0xbe229286	-0.15876207
73	0xbe5f66f9	-0.21816625
74	0xbeec0aa0	-0.46101856
75	0x3d95462e	0.07288776
76	0x3e024eab	0.12725322
77	0xbd846daa	-0.06466229
78	0x3e54f585	0.20796783
79	0x3e84f72f	0.25969836
80	0x3e2cdb6f	0.16880582
81	0x3f9817da	1.1882279
82	0x3fe30bfc	1.7738032
83	0x3f18e188	0.59719133
84	0x3ef7e3fd	0.4841613
85	0x3ee0cd69	0.43906716
86	0x3f51669d	0.817972
87	0xbf15d989	-0.5853506
88	0x3c97c662	0.018527213
89	0x3d0c5355	0.03425916
90	0xbfb859df	-1.4402426
91	0xbfb54db7	-1.4164342
92	0x3cb4b6f4	0.022059895
93	0xbfdd8808	-1.7307138
94	0xbf8e7380	-1.1128998
95	0x3f1abafe	0.6044158
96	0xbe8a8118	-0.27051616
97	0x40079d1d	2.1189644
98	0x4043e7e3	3.0610282
99	0xbf205ee7	-0.6264481
100	0xbf2e49d1	-0.68081385
101	0xbea4600c	-0.32104528
102	0xbe61ef26	-0.22063884
103	0xbed5739a	-0.4168976
104	0xbec48084	-0.383793
105	0xbf01b58d	-0.5066765
106	0xbf3523fb	-0.70758027
107	0xbebbf334	-0.36708987
108	0xbe8590b1	-0.26086953
109	0x3bc5f4b4	0.006041134
110	0x3dd472c7	0.103734545
111	0xbe2ae145	-0.16687496
112	0xbcefd481	-0.029276134
113	0x3f256feb	0.646239
114	0x3ea16a71	0.3152652
115	0x3f02bd81	0.5107041
116	0x3ec0253d	0.3752841
117	0x3f1ed36f	0.6204137
118	0xbf0ca2a2	-0.5493566
119	0xbf7fb5fe	-0.99887073
120	0x3f3e2866	0.74280393
121	0xbf01255b	-0.50447625
122	0xbf9064e2	-1.1280787
123	0x3f451b0a	0.76994383
124	0xbe1e7b48	-0.15476716
125	0xbf4e6da0	-0.80636024
126	0xbf35aaf0	-0.70963955
127	0xbf1239a5	-0.5711921
128	0xbeffc242	-0.49952894
129	0xbf3c6b87	-0.73601574
130	0xbec8c619	-0.39213637
131	0xbe3ffd1a	-0.18748894
132	0xbf0bd11a	-0.5461594
133	0xbe4ece93	-0.2019599
134	0x3d72d71d	0.05928718
135	0x3e225279	0.15851773
136	0x3f1a0f70	0.60179806
137	0x3ed472f2	0.41493946
138	0x3ed1b35d	0.40957156
139	0x3eb8086a	0.3594392
140	0x3e917cda	0.28415567
141	0x3e256c20	0.16154528
142	0x3e9d2ce4	0.3069831
143	0x3e6fe6cf	0.2342789
144	0xbf5bcc7f	-0.8585891
145	0x3f0dbaaf	0.5536298
146	0x3f93684e	1.1516206
147	0xc01b775d	-2.4291604
148	0x3fdc3374	1.7203202
149	0x3f5ef623	0.87094325
150	0xc00de324	-2.2169886
151	0x3fb1fd6d	1.3905464
152	0x3f87f57a	1.0621789
153	0x3e64953b	0.22322552
154	0x3eb304a4	0.34964478
155	0x3e3b76f3	0.18307094
156	0x3e9b3f26	0.30321616
157	0x3f451562	0.7698575
158	0x3edfe5b1	0.43729928
159	0x3dd0047c	0.10157105
160	0x3efc25de	0.4924764
161	0x3ef8444d	0.4848961
162	0x3ed0cdb9	0.40781954
163	0x3fb4996a	1.4109318
164	0x3f5fd1ff	0.87429804
165	0xbf2a9007	-0.6662602
166	0x3f0dcbcc	0.55389094
167	0xbe059970	-0.13046813
168	0xbef8bd0a	-0.48581725
169	0xbfa8d540	-1.3190079
170	0xbf44809e	-0.76758754
171	0xbd5bc693	-0.053656172
172	0xbed3e2f3	-0.41384086
173	0x3d5fff1d	0.054686654
174	0xbe328a8a	-0.17435661
175	0xbeba46f3	-0.36382255
176	0xbe619c5b	-0.22032301
177	0xbe2168b1	-0.15762593
178	0xbedac5c4	-0.42729008
179	0xbe6a0872	-0.22854784
180	0x3f108464	0.5645201
181	0xc00d986b	-2.2124279
182	0xbfe74a6c	-1.8069587
183	0x3ff1aadc	1.8880267
184	0x3ea529a4	0.32258332
185	0xbfbcb01e	-1.4741247
186	0x40027b25	2.0387661
187	0x3f6cafbd	0.92455655
188	0x3eac693e	0.33674043
189	0xbe525914	-0.20541793
190	0xbf0ea9cc	-0.5572784
191	0xbf36c1d5	-0.71389514
192	0xbb829448	-0.0039849617
193	0xbf5ea264	-0.8696654
194	0xbf4eb362	-0.80742466
195	0xbdf2677a	-0.11836143
196	0xbe4824e9	-0.1954533
197	0xbf0f58bb	-0.55994767
198	0xbf918408	-1.1368418
199	0xbecc01c3	-0.39845094
200	0x3e479bec	0.19493073
201	0xbe84d844	-0.25946248
202	0xbf07d655	-0.5306142
203	0x3e827e8c	0.25487173
204	0xbf17917e	-0.5920638
205	0xbf5da64b	-0.8658187
206	0xbea610b0	-0.32434607
207	0x3e381c66	0.17979583
208	0x3f1a138a	0.60186064
209	0x3eb3594b	0.35029063
210	0x3d08c284	0.03338863
211	0x3e2267fb	0.15859978
212	0x3eb0df3c	0.34545314
213	0x3c5dcc92	0.013537543
214	0x3e8e55b7	0.2779977
215	0x3e85aca1	0.26108268
216	0xbea02e57	-0.31285354
217	0xbf4c9fca	-0.7993132
218	0xbf39f758	-0.7264304
219	0xbeb3e1de	-0.3513326
220	0xbeab220a	-0.33424407
221	0xbf0f692c	-0.56019855
222	0xbe70838a	-0.23487678
223	0xbe943910	-0.28949785
224	0xbe27dac3	-0.16392045
225	0xbe5aed8c	-0.2137968
226	0xbe420bfe	-0.18949887
227	0xbee63a3d	-0.44966307
228	0x3dad27cb	0.084548555
229	0xbe3007d8	-0.17190492
230	0xbebed47a	-0.37271482
231	0x3e7bc5ab	0.24587123
232	0x3e132d16	0.14372668
233	0xbe92c424	-0.28665268
234	0xbe5d5303	-0.21613698
235	0xbe8cb558	-0.27482104
236	0xbe2744e4	-0.16334873
237	0xbecb6133	-0.39722595
238	0xbe861094	-0.26184523
239	0xbe6e9262	-0.23298028
240	0xbebdaa80	-0.37044144
241	0xbebf6c1f	-0.37387177
242	0xbecead65	-0.40366665
243	0x3e86905a	0.26282007
244	0x3e9a035f	0.30080697
245	0x3e127df9	0.14305867
246	0x3ed8ec99	0.4236801
247	0x3ed3db75	0.4137837
248	0x3e339a70	0.17539382
249	0x3da7b3e5	0.08188609
250	0x3ddd2796	0.10798566
251	0x3e28146c	0.1641404
252	0x3e69c0ab	0.22827403
253	0x3e543bca	0.20725933
254	0xbe2d8555	-0.16945393
255	0x3e9cee81	0.30650714

bias f4 [32]
0	0xbf08ff5a	-0.53514636
1	0xbcf7c1a8	-0.03024371
2	0x3d44e49d	0.048069585
3	0xbd8d23b8	-0.068915784
4	0x3f0a1ea0	0.5395298
5	0x3f2ae2ac	0.66752124
6	0xbecce23f	-0.40016362
7	0x3f238294	0.6387112
8	0xbb79aa20	-0.0038095787
9	0xbed6dbf8	-0.41964698
10	0x3b91e848	0.004452739
11	0x3f7f031d	0.99614125
12	0xbf1d3da8	-0.61422205
13	0x3f6a8cf0	0.91621304
14	0x3f803dd5	1.001887
15	0xbe4e552c	-0.20149678
16	0xbef4564f	-0.47722098
17	0x3c082d40	0.00831157
18	0x3cac109c	0.021004014
19	0x3f04b0c6	0.51832235
20	0x3e734973	0.23758487
21	0x3f4d54ee	0.8020772
22	0x3f227996	0.63466775
23	0xbe88474a	-0.2661689
24	0x3f4157e3	0.7552473
25	0x3f0c359b	0.54769295
26	0x3f573d2d	0.8407772
27	0x3d716abc	0.05893968
28	0x3d526a62	0.051370986
29	0x3f2ace68	0.667212
30	0xbed500be	-0.4160213
31	0x3e8764e5	0.26444164

weight f4 [64, 32, 1, 1]
0	0x3ddca3cf	0.107734315
1	0x3cba2304	0.022721775
2	0x3c8201cd	0.01587
3	0x3df21339	0.11820073
4	0xbd003af3	-0.03130622
5	0x3c7a1ebd	0.015266118
6	0xbd07b0d6	-0.03312763
7	0x3d310dac	0.04322593
8	0xbd314535	-0.04327889
9	0x3bbf5f90	0.0058402494
10	0xbe271dc5	-0.1631995
11	0xbd8421bf	-0.06451749
12	0x3d99b62a	0.07505448
13	0x3e311925	0.17294748
14	0xbcd3e606	-0.02586652
15	0xbdf30c13	-0.11867537
16	0x3d1fa9ba	0.038980223
17	0xbda78065	-0.08178786
18	0xbd538cbe	-0.051647894
19	0x3d00b48a	0.031422175
20	0x3e5266c0	0.20547009
21	0x3e339883	0.17538647
22	0x3e298200	0.16553497
23	0xbd89e725	-0.067335404
24	0xbddc37aa	-0.107528046
25	0x3c08d69d	0.008351949
26	0xbe078077	-0.13232599
27	0xbe870406	-0.26370257
28	0x3da121bb	0.07867762
29	0x3e2a0491	0.16603304
30	0x3d1f674d	0.038916875
31	0xbcc5d7ae	-0.024150696
32	0x3c3d57c1	0.011556567
33	0x3e53366a	0.20626226
34	0xbdb29e13	-0.087215565
35	0xbdf834d4	-0.12119451
36	0xbb82cfcb	-0.003992056
37	0xbc0f5c2d	-0.008750004
38	0xbb0d5811	-0.0021567384
39	0x3c0063fb	0.007836337
40	0x3dd64c3f	0.104637615
41	0x3d448b89	0.047984634
42	0x3dfc223e	0.12311219
43	0x3d7e2277	0.062044587
44	0x3e19bb43	0.15012841
45	0x3df403f6	0.11914818
46	0x3c895e19	0.016768502
47	0xbde5f66c	-0.11228642
48	0xbcb42654	-0.021990933
49	0xbe36960e	-0.17830679
50	0xbd45b6d8	-0.048270077
51	0xbdb700d8	-0.08935708
52	0x3d091a2b	0.03347222
53	0xbdc3f1d4	-0.095676094
54	0x3d07c508	0.033146888
55	0xbb06a8a6	-0.00205473
56	0xbd9a876c	-0.07545361
57	0x3e7fa7a3	0.24966292
58	0xbd45c585	-0.048284072
59	0x3c1d553a	0.009602839
60	0x3e0fbe74	0.14037496
61	0xbd14867b	-0.036261063
62	0xbd0dab67	-0.03458729
63	0xbd0e9bfd	-0.03481673
64	0xbe156b62	-0.14591745
65	0xbd98c32c	-0.07459101
66	0x3ced6808	0.02898027
67	0xbe261d15	-0.16222031
68	0xbc96d187	-0.018410457
69	0xbe574383	-0.21021847
70	0xbd4d7481	-0.050159935
71	0x3e13c7f4	0.14431745
72	0xbe96ed07	-0.29477713
73	0x3d586f38	0.05284044
74	0xbe31fddf	-0.17382
75	0xbcf35222	-0.02970225
76	0x3d9c6993	0.07637324
77	0xbdd69a67	-0.10478669
78	0xbd3ab5d3	-0.045583557
79	0xbbd50fde	-0.0065021357
80	0xbe48f85e	-0.19625995
81	0xbc32bbc1	-0.010909022
82	0xbc853fc0	-0.01626575
83	0xbd802541	-0.062571056
84	0xbd62496b	-0.055245798
85	0xbd370fe3	-0.044692885
86	0xbdf216a2	-0.11820723
87	0x3d94879a	0.072524264
88	0xbdad29cc	-0.08455238
89	0xbd3c62f4	-0.045992807
90	0xbc09448c	-0.008378159
91	0x3dbe8307	0.09302335
92	0x3e1155eb	0.14192931
93	0x3e251f72	0.16125277
94	0x3d57e866	0.052711867
95	0xbe12422a	-0.14283052
96	0xbe07ba38	-0.1325463
97	0x3cfd4f90	0.030921727
98	0x3c17ee54	0.00927313
99	0xbe462113	-0.19348554
100	0x3de9537a	0.11392875
101	0xbd992230	-0.07477224
102	0x3ce14afc	0.027501576
103	0x3dc11b99	0.09429092
104	0x3e5b198b	0.21396463
105	0xbd676b27	-0.056498673
106	0xbdbc7410	-0.09201825
107	0x3e93c86a	0.2886384
108	0xbddc4812	-0.10755934
109	0x3e43a972	0.19107607
110	0x3d823e8b	0.063595854
111	0xbcf3eaa5	-0.029774973
112	0xbceb493f	-0.02872145
113	0xbcba746f	-0.022760598
114	0x3d852d57	0.065027885
115	0x3d818ad3	0.06325307
116	0xbd3c6c0b	-0.046001475
117	0x3e885543	0.2662755
118	0x3c14ac59	0.009074294
119	0xbb8f3d82	-0.004371346
120	0x3c178a5c	0.009249296
121	0x3d3d870a	0.04627136
122	0xbd547cd7	-0.05187687
123	0xbd90ee58	-0.070767105
124	0x3c49d3ec	0.0123185925
125	0xbddea88c	-0.108719915
126	0x3d5a7d95	0.05334242
127	0xbdf94a58	-0.12172383
128	0x3e859bb6	0.2609536
129	0xbd709c86	-0.058743022
130	0x3c4f37de	0.012647597
131	0xbbd5fd82	-0.0065304646
132	0xbdb74880	-0.08949375
133	0x3d583494	0.052784517
134	0x3cc6d6c7	0.024272336
135	0x3e801b0f	0.25020644
136	0xbd525748	-0.05135277
137	0xbbef3988	-0.0073005594
138	0xbd56f2f0	-0.052477777
139	0x3cb52ff6	0.022117596
140	0x3dc8b3d8	0.097999275
141	0x3ce43c41	0.027860763
142	0xbcc4da39	-0.024029838
143	0x3d9ea48f	0.07746231
144	0x3dab6f29	0.083708115
145	0x3e19e76c	0.15029687
146	0x3d8e0dde	0.06936239
147	0x3c0445a8	0.008073248
148	0x3d7a9e48	0.061186105
149	0x3bd958c2	0.006632895
150	0xbe82d13e	-0.25550264
151	0x3d074af5	0.03303047
152	0x3d085166	0.033280753
153	0x3d1c3f71	0.03814644
154	0xbe265ec0	-0.16247082
155	0x3cb47712	0.022029433
156	0xbda94f6b	-0.08267101
157	0xbdc32539	-0.09528584
158	0x3d66ba08	0.056329757
159	0xbdf2bf19	-0.11852855
160	0xbd50d952	-0.050988503
161	0x3df4ce16	0.1195337
162	0x3da2e90c	0.079546064
163	0x3c0c098d	0.008547199
164	0x3e0a70c2	0.13519576
165	0x3e1f75dd	0.15572305
166	0x3d2541fc	0.04034613
167	0xbc8df3fa	-0.017328251
168	0xbd3168ea	-0.043312944
169	0x3cef3560	0.029200256
170	0x3b81b78a	0.003958647
171	0x3e0a03f9	0.13478078
172	0xbd93859e	-0.0720322
173	0x3d81004c	0.06298885
174	0x3e104daf	0.14092134
175	0x3d6cab52	0.05778057
176	0x3da243d1	0.07923091
177	0xbe10e33f	-0.14149188
178	0xbdbb7a6b	-0.09154209
179	0x3be3ead9	0.0069554863
180	0xbce3b2f1	-0.027795287
181	0xbd37eddb	-0.04490457
182	0xbcfb06b3	-0.030642843
183	0x3de89b16	0.11357705
184	0xbd47f847	-0.04882076
185	0xbe1a462b	-0.1506583
186	0xbd233e26	-0.03985419
187	0xbdbf2e7f	-0.0933504
188	0x3dbd6454	0.09247652
189	0xbdb9d019	-0.090728946
190	0x3d8fe02e	0.07025181
191	0xbe9d3d2f	-0.30710742
192	0xbdba9b12	-0.091116086
193	0xbd3afbcc	-0.04565029
194	0xbd19b561	-0.037526492
195	0x3ddda223	0.10821941
196	0xbddd7b4b	-0.10814532
197	0xbd5cdf14	-0.05392368
198	0xbe0d7421	-0.13813831
199	0x3dd6c3ac	0.1048654
200	0xbe6af987	-0.2294675
201	0x3d5c7fac	0.053832695
202	0xbdfc908f	-0.1233226
203	0x3dc0b840	0.09410143
204	0xbe17eb50	-0.14835858
205	0xbdddc6cc	-0.10828933
206	0x3d065348	0.032794267
207	0x3dc278fc	0.09495732
208	0xbd2d153e	-0.042256586
209	0xbe386ed4	-0.18011028
210	0xbd82bc7d	-0.063836075
211	0xbdad983f	-0.08476304
212	0xbd1483cf	-0.036258515
213	0x3c53cd01	0.012927295
214	0x3da01d88	0.07818133
215	0x3dcba46a	0.09943469
216	0x3e1b3537	0.15157019
217	0xbda7ef0f	-0.08199894
218	0xbc61a233	-0.013771581
219	0x3cdc8878	0.026920542
220	0x3dc0810d	0.093996145
221	0x3c38652b	0.011254589
222	0x3dd3a94c	0.10335025
223	0x3e0896bf	0.13338755
224	0xbc8c3643	-0.017115718
225	0xbde2d7a8	-0.110762894
226	0xbda7f02e	-0.082001075
227	0x3d2eaf8d	0.042647887
228	0xbde083aa	-0.10962613
229	0x3e2a49a2	0.16629651
230	0xbd8f9d50	-0.07012427
231	0x3d0bc6f9	0.034125302
232	0xbd7a3b86	-0.061091922
233	0xbd153d96	-0.036435686
234	0xbe0eb2e9	-0.13935436
235	0x3d7baef4	0.061446145
236	0xbe1b4bcf	-0.15165637
237	0x3d36b3e4	0.04460515
238	0xbdef697d	-0.11690042
239	0xbc1003f6	-0.008790007
240	0x3e17cbc6	0.14823827
241	0xbe4ecddd	-0.20195718
242	0x3cc6d55a	0.024271656
243	0xbe0b7d4d	-0.13622017
244	0x3d7cd77f	0.06172895
245	0xbbdbd24d	-0.0067084194
246	0x3b7b4409	0.0038340113
247	0xbd29db3d	-0.041468848
248	0xbe1cb4b6	-0.15303311
249	0xbd9891ce	-0.07449685
250	0x3d2b886c	0.04187815
251	0xbe10eaf8	-0.14152133
252	0x3dd926c8	0.106031
253	0xbd0ce789	-0.034400497
254	0x3d26108d	0.040543128
255	0x3e36b290	0.17841554

weight f4 [64]
0	0x3eb9bae3	0.36275396
1	0x3e1c9a34	0.15293199
2	0x3eb0e4de	0.34549612
3	0x3ec2134d	0.3790535
4	0x3e735623	0.23763327
5	0x3e83de8b	0.25755724
6	0x3e8232ca	0.25429374
7	0x3eaa9fcc	0.3332504
8	0x3f19e141	0.60109335
9	0x3e035760	0.128263
10	0x3f3b3660	0.73129845
11	0x3ed053d5	0.4068896
12	0x3ea3c574	0.31986582
13	0x3ea8b045	0.32946983
14	0x3eb3d8ef	0.35126445
15	0x3eb0e365	0.34548488
16	0x3ed3fbd5	0.4140307
17	0x3e0cb851	0.13742186
18	0x3e8ce872	0.27521092
19	0x3e8d71ec	0.27625978
20	0x3ea204b2	0.31644207
21	0x3eb1e6d9	0.34746435
22	0x3ec800f9	0.39063242
23	0x3ea86ff1	0.32897905
24	0x3ef0964b	0.46989664
25	0x3f3e307e	0.74292743
26	0x3e49969d	0.1968636
27	0x3eea9a64	0.45820916
28	0x3e985b3f	0.29757115
29	0x3e873c6a	0.2641328
30	0x3efddb4f	0.49581382
31	0x3f191bb5	0.598079
32	0x3f2c40e2	0.67286503
33	0x3e94ae84	0.29039395
34	0x3deea2bb	0.11652132
35	0x3ea8c6ee	0.3296427
36	0x3ea62e5b	0.3245724
37	0x3e443d77	0.19164072
38	0x3d015567	0.031575587
39	0x3e47272a	0.19448534
40	0x3eee8be4	0.46591103
41	0x3eb5d70d	0.35515633
42	0x3eba683e	0.36407655
43	0x3ef5e04f	0.48022696
44	0x3e86a625	0.26298633
45	0x3ec8e1a2	0.39234644
46	0x3db2182a	0.08696015
47	0x3f1528e1	0.582655
48	0x3e460934	0.19339448
49	0x3ed8a2bc	0.42311656
50	0x3e879b0f	0.26485488
51	0x3ebf1d3d	0.37326995
52	0x3e2e4de2	0.17021897
53	0x3eef5e7d	0.46751776
54	0x3e976b9e	0.29574293
55	0x3f7366eb	0.95078915
56	0x3ee2a948	0.44269776
57	0x3e17bdd3	0.14818506
58	0x3e21e737	0.15810858
59	0x3eb6293a	0.35578328
60	0x3ee7f6ef	0.45305583
61	0x3e7198c2	0.23593429
62	0x3dc8fbe9	0.09813673
63	0x3ee748f6	0.45172852

bias f4 [64]
0	0xbd5cea57	-0.05393442
1	0xbdaf358c	-0.08555135
2	0x3e0b559a	0.13606873
3	0x3cef3398	0.029199407
4	0x3d92bee8	0.07165319
5	0x3bb2f9ff	0.0054619308
6	0x3d8389ae	0.06422745
7	0x3d4e3bd0	0.05035001
8	0x3ac5f697	0.0015103397
9	0x3d049373	0.03236718
10	0xbd120e95	-0.035658438
11	0xbd3b7946	-0.045769952
12	0xbe90a233	-0.28248748
13	0x3d05486e	0.032539777
14	0xbdac24ca	-0.084054545
15	0xbdf928f1	-0.12166012
16	0xbcddfc97	-0.027097983
17	0x3d54a352	0.051913567
18	0xbe3f1200	-0.1865921
19	0x3d568f87	0.052382972
20	0x3e67142a	0.22566286
21	0xbd69a0e3	-0.0570382
22	0x3d8d7bf5	0.069084086
23	0xbdfd7913	-0.12376609
24	0xbd0286f8	-0.031866997
25	0x3d536323	0.051608216
26	0xbdb5e99e	-0.088824496
27	0x3cc0db06	0.023541939
28	0xbd05fa4a	-0.032709397
29	0xbdb9ec44	-0.09078267
30	0x3b9bad07	0.004750851
31	0xbe83d3d8	-0.2574756
32	0xbe8b1f9d	-0.27172557
33	0xbc11f406	-0.008908277
34	0xbcb9fd17	-0.02270369
35	0x3e1d6e43	0.15374093
36	0x3d8eb2ac	0.06967673
37	0xbce6519a	-0.028115083
38	0x3e2964e8	0.16542399
39	0xbcd48add	-0.025945121
40	0x3cd956f8	0.026530728
41	0xbe1b170a	-0.15145507
42	0xbe59a148	-0.2125293
43	0xbe28d6cd	-0.1648819
44	0x3d02ccc5	0.031933565
45	0xbe4bcffc	-0.19903558
46	0x3da6144d	0.08109341
47	0x3ccd223e	0.025040742
48	0x3dd3b1f9	0.1033668
49	0x3d984aad	0.07436118
50	0x3a488f96	0.00076507905
51	0x3def63ca	0.11688955
52	0xbd822a4c	-0.06355724
53	0x3db99615	0.09061829
54	0xbe3db4d7	-0.18526016
55	0xbdd1e05a	-0.1024787
56	0x3d244153	0.04010136
57	0x3d9d9cb9	0.07695908
58	0xbe17ff53	-0.14843492
59	0xbc1a1cf2	-0.009406315
60	0x3d88f4c1	0.06687308
61	0x3deabcae	0.11461769
62	0x3d8aba2c	0.06773791
63	0x3e728ee9	0.23687328

running_mean f4 [64]
0	0x3e128b30	0.14310908
1	0x3e1b4c19	0.15165748
2	0xbe5cf97b	-0.21579544
3	0x3eb2514a	0.34827644
4	0xbd4a2cac	-0.04935901
5	0x3df228e4	0.118242055
6	0x3d785455	0.0606273
7	0xbe36a44c	-0.17836112
8	0x3d6c97ae	0.05776184
9	0xbe14fc91	-0.14549471
10	0x3d9022db	0.07037898
11	0xbc80474e	-0.015659
12	0x3e2322f0	0.15931296
13	0x3d1b5700	0.037924767
14	0x3dc8a977	0.09797948
15	0x3b646f0a	0.0034856224
16	0x3ea27336	0.31728524
17	0xbe937509	-0.28800228
18	0x3d5354ec	0.05159466
19	0xbcf651f9	-0.030068384
20	0x3ea6742c	0.32510507
21	0xbed3ccae	-0.41367096
22	0x3dec81db	0.115482055
23	0xbe94e0dc	-0.29077804
24	0xbc62b54f	-0.013837173
25	0x3d3b1bf5	0.04568096
26	0x3d69ec95	0.057110388
27	0x3dd2e31e	0.102972254
28	0xbda498ac	-0.08036932
29	0x3e9b9f30	0.30394888
30	0xbe4e403a	-0.20141688
31	0x3d9a34f5	0.07529632
32	0x3e5aeff6	0.213806
33	0xbb516ded	-0.003195639
34	0xbe48fd90	-0.19627976
35	0xbe28a91a	-0.16470757
36	0xbd8d756b	-0.06907161
37	0xbe61924b	-0.22028463
38	0xbd22d81a	-0.03975687
39	0xbd8c1608	-0.068401396
40	0xbe1e1639	-0.15438165
41	0x3cccc4f0	0.02499625
42	0x3d405e1f	0.04696476
43	0x3e81a30f	0.25319716
44	0x3bc8799f	0.006118014
45	0x3e0fac23	0.14030509
46	0xbcf9cf68	-0.030494407
47	0xbe95bb84	-0.29244626
48	0xbdf54a8c	-0.11977109
49	0x3ddc9df5	0.107723154
50	0x3e3a0fd6	0.18170103
51	0xbd33d1e7	-0.04390135
52	0xbdb77e9c	-0.08959696
53	0x3e43214a	0.19055668
54	0xbe68a8c6	-0.22720632
55	0x3e1b7fa1	0.15185405
56	0xbeb9077b	-0.3613852
57	0x3e5529b9	0.20816697
58	0x3d0424bd	0.0322616
59	0x3ebc9ec1	0.3683987
60	0xbe34fa90	-0.17673707
61	0xbe7f9889	-0.24960531
62	0xbeab95e6	-0.335128
63	0xbd74f125	-0.059800286

running_var f4 [64]
0	0x3d2ddb6e	0.042445593
1	0x3cf8addb	0.030356338
2	0x3d1e9916	0.038720213
3	0x3dbf06c3	0.093274616
4	0x3d44a646	0.048010133
5	0x3d0993c1	0.033588175
6	0x3cf4cd6b	0.029883107
7	0x3d112101	0.035431866
8	0x3d2b79fb	0.041864377
9	0x3c8da09a	0.017288495
10	0x3d67a34b	0.056552213
11	0x3de1fd54	0.11034647
12	0x3c65c467	0.014023877
13	0x3d702e2d	0.058637787
14	0x3d4b9574	0.049703076
15	0x3d925034	0.07144204
16	0x3cc87fbe	0.024474975
17	0x3d0548dc	0.032540187
18	0x3d15ef23	0.03660501
19	0x3df2a670	0.11848152
20	0x3daf3a8f	0.08556091
21	0x3d0a1448	0.033710748
22	0x3d2af139	0.041733954
23	0x3d687a37	0.05675718
24	0x3caf7c3c	0.021421544
25	0x3c8a6d91	0.016897948
26	0x3d6adacb	0.057337563
27	0x3d2998ad	0.04140537
28	0x3d283721	0.0410682
29	0x3d96baf3	0.073598765
30	0x3cdc3acd	0.026883507
31	0x3d991481	0.07474614
32	0x3d4e372d	0.05034559
33	0x3c8454d6	0.016153734
34	0x3c3f9cad	0.011695069
35	0x3d2117ea	0.039329447
36	0x3c6b94b4	0.014378715
37	0x3cc79bc3	0.024366265
38	0x3ca84163	0.020538991
39	0x3d7e341a	0.062061407
40	0x3c4cbdb8	0.012496404
41	0x3cb99c9b	0.022657683
42	0x3d9f3875	0.0777444
43	0x3cbd7ab0	0.023129791
44	0x3ce5cab7	0.028050764
45	0x3d2e2532	0.04251594
46	0x3d192ea6	0.037398003
47	0x3c89f296	0.016839307
48	0x3d0a3a92	0.033747263
49	0x3cda5a8b	0.026654502
50	0x3d7bb74b	0.0614541
51	0x3d34aa84	0.04410793
52	0x3dbbc7b3	0.09168949
53	0x3d239045	0.039932508
54	0x3d0bff78	0.03417918
55	0x3d54f8df	0.051995154
56	0x3cf5ba31	0.02999601
57	0x3cb49818	0.02204518
58	0x3d8a59e6	0.06755428
59	0x3e02c846	0.12771711
60	0x3d175292	0.03694398
61	0x3e00f471	0.12593247
62	0x3d8139de	0.063098654
63	0x3caee32a	0.021348555
